cstr/data/trained_models/seed_3/td3_pso/models/best_model_actor.pth (torch, 21121 bytes, 5 tensors)

net.0.weight f4 [64, 3]
00000000: 69fd 293e 722b 9dbe 807e c2bc 1820 ab3e
00000010: 2096 da3e 4a6b 073f 3cee 83be 95ba 053f
00000020: fffe 26be aca6 bfbd 60cc 143f e4b9 293d
00000030: ea60 ccbe 6c73 9cbe f8f0 e63c c747 ce3c
00000040: 6a30 343c 6d2a 52be b6b7 a5bd 8edb 0f3e
00000050: 3b34 683e fd74 ca3e d9d2 f73e 766d 913e
00000060: 6e4e 61bd a873 febe 445d 053f e7b9 b33e
00000070: e635 093f 0e8a d03d 4214 fd3d 681b 833e
00000080: 932a f33e 7e60 ab3e 81a7 7b3e c546 8bbd
00000090: a806 94be 2fcc 6b3d d4f2 b63e 16f3 bfbc
000000a0: 50b7 fa3e 4c2f f1be 5971 9d3e d95a 2e3e
000000b0: e973 afbe a349 6f3e f98b abbe b0d2 de3e
000000c0: 4c32 933e cdf9 0cbf 2fb7 8c3e 9c56 d83d
000000d0: 426f a73e 521b 873e ce1b dcbd 9ccf 73be
000000e0: 4495 18be 56fb 4fbe fd9b f0be 90fd 553e
000000f0: 1235 68be 02d4 003e 9cc6 3dbe c4c8 c73e
00000100: b233 d33d cd35 0cbf 807f 9fb9 c0ae efbd
00000110: dff2 a1be 3696 fb3e b8e6 883d 27f7 45be
00000120: 62e1 0cbf bae9 0a3f 912d dfbe d29e 5f3d
00000130: dfe8 bc3e f054 09bf 7da9 3a3e 54c6 043f
00000140: 5f6c 5dbe 8083 2dbe 080f ffbe a5c5 14bf
00000150: 4601 36be eb7b de3e 45f5 503d 2ce5 d8be
00000160: 6c71 bd3e be1b 2d3d 28b6 0e3f f303 04bf
00000170: bd1e 07bf 5771 893d d778 fbbe a23f f0be
00000180: d92d c53e 889d e1be e2c5 f5be 58fb 0b3e
00000190: ddf6 3d3e e1e3 043f 0ccb 32be 1d2c 723d
000001a0: d8ca afbe 34fa 203e 60ce 3f3d 60d9 69be
000001b0: 8edb e13e 4ca7 c9bc 44f8 4abe 2de8 20be
000001c0: eb0e 35be 6632 fabd b644 243e d47e c53e
000001d0: 67ca a43c 2cb2 0f3f 1789 69be 36a3 7d3e
000001e0: 0575 08bf 2fbd 983e d767 013e 54ca 6b3e
000001f0: 862b 01bf c7f4 f63e 9cbc 5ebe 667b e6bc
00000200: 43dd c13e 8e6b febe b0bf c13e f135 a6be
00000210: 99eb 08bf 9300 9ebe 33b9 eabe b045 f03e
00000220: 71e7 8e3e 8d0c c4be 3bc0 743e af1c 4b3e
00000230: 2808 163d eeea a03e 9c2a 09bf fcb6 e03e
00000240: a94b dc3e e95d ef3c edc5 d83c 4a97 adbd
00000250: 87ae 40bd 98cd b7be 86a6 5a3e 60d3 e53c
00000260: 5b91 1cbd cb2a 173f 307d 31bd 82bd ecbe
00000270: f32b 503d ae3a fabe 9e8c d5be 1c09 65be
00000280: 7ee9 e1be 4f1a d4be c92a febd 2cf6 fe3c
00000290: b7eb 05bd 9c06 e13d 219b 3ebc 0aae f43e
000002a0: 8b2e a23d a51a 2cbd 78ec 08bb 104c 693d
000002b0: b6e3 26be 3dad bdbd 32b8 043f 3928 d6bc
000002c0: 26fb e23e 0211 963e be89 0a3f b27e 013f
000002d0: b88c d8be 68d5 ecbe 5af7 03bf 3529 08bf
000002e0: 26b9 0fbe 5006 a1be 9b65 043e bd4b c1be
000002f0: 1ecd ca3e 2e8d 1b3f c971 253e 63a6 123e
0.16600575 -0.3069721 -0.02374196 0.33422923 0.4269266 0.52898085 -0.25767696 0.52237827
-0.16308211 -0.09357962 0.5812435 0.041437045 -0.3991769 -0.3055681 0.028191075 0.02518071
0.010997871 -0.20523997 -0.08091681 0.14048597 0.22676174 0.3954238 0.48403051 0.28403825
-0.055006437 -0.49697614 0.5209544 0.3510277 0.5359787 0.10182582 0.123573795 0.25606847
0.4749342 0.33472055 0.24575616 -0.068006076 -0.28911328 0.05756777 0.35732138 -0.023431342
0.4896798 -0.47106397 0.3075054 0.17026843 -0.3426812 0.23367934 -0.33505228 0.43520117
0.2874931 -0.55068666 0.27483508 0.105633944 0.3270207 0.2638803 -0.10747491 -0.23809665
-0.1490069 -0.20310721 -0.4699401 0.20897508 -0.22676495 0.12580875 -0.18532795 0.3902036
0.103125945 -0.54769593 -0.00030421838 -0.11703253 -0.31630608 0.4913804 0.06684631 -0.19332562
-0.55031407 0.5426289 -0.43589452 0.054594822 0.36896417 -0.5364523 0.18228717 0.51865125
-0.21623372 -0.16944695 -0.49816155 -0.5811408 -0.17773923 0.43453917 0.051015157 -0.42362344
0.37000597 0.042262785 0.557467 -0.51568526 -0.5278128 0.06711071 -0.4911563 -0.46923548
0.3851154 -0.440655 -0.48002535 0.13670099 0.18551202 0.51910216 -0.17460269 0.0591241
-0.34334445 0.15720445 0.046827674 -0.22836828 0.4411282 -0.024615906 -0.19821268 -0.15713568
-0.17681472 -0.12216644 0.16041836 0.38573325 0.020116044 0.56131244 -0.22806202 0.24769291
-0.5330356 0.29831836 0.12637268 0.23026401 -0.50457036 0.48233625 -0.21751636 -0.028135013
0.37864122 -0.49691433 0.37841558 -0.3246303 -0.53484493 -0.30859813 -0.4584442 0.46928167
0.2791095 -0.38290825 0.23901455 0.1983516 0.036628872 0.31429237 -0.5358064 0.43889606
0.43026474 0.029219585 0.026461566 -0.08476122 -0.047041442 -0.35899043 0.21352586 0.028054893
-0.03822456 0.5904967 -0.04333228 -0.46238333 0.050823163 -0.48872894 -0.41708845 -0.22366756
-0.44123453 -0.41426322 -0.12410504 0.031123243 -0.0326955 0.10987589 -0.011633665 0.4778903
0.079190336 -0.042017598 -0.00208929 0.056957304 -0.16297802 -0.09261558 0.5184356 -0.026142227
0.44332236 0.2930985 0.5411643 0.50583947 -0.4229486 -0.46256566 -0.51549304 -0.53187877
-0.14035472 -0.3145013 0.12929384 -0.37753096 0.39609617 0.607623 0.16156687 0.14321284

net.0.bias f4 [64]
00000000: aa44 0dbf dd5c c5be 79ad fbbd 9637 923e
00000010: a7b2 d33d 6a00 1b3e 95ec 09bf b458 c23e
00000020: d534 dbbe 47a4 7d3e 8641 b93e 20aa 35bc
00000030: 8e95 b53e 8382 8c3e b8dd 2cbd b386 1ebf
00000040: 497e ccbe 64ee 3cbd 36b2 cf3e 93fb 3d3e
00000050: 6abe 95bd 59df 92be 925d c63e 432c d33d
00000060: 9080 d43e c20c 3b3e b8bc e4bd 6b57 113f
00000070: 08ef 4cbe 981d 17bf bf54 4c3e 5dfd b0be
00000080: ea5a a9be 173a 0fbf 8f7f fdbe 3faa 58bd
00000090: f4d4 c6be 8e91 433e d1e4 c9be 32cb fc3e
000000a0: 2b22 0a3f 3bfa 97bd a38d 9ebc 3377 4c3e
000000b0: 92b1 99bc 238b 11bf 847d c7be 5443 85be
000000c0: 0d93 933e a3fc bb3d 9ea5 0dbf 7c20 08bf
000000d0: 9cbe d93e ecdb d73e a559 0fbf cada f23e
000000e0: 5e0f 66be 9609 3f3d 89f4 02be 746e 7b3e
000000f0: 742c b33e 3099 8f3e b255 a3be cf18 56be
-0.551829 -0.38547412 -0.12288947 0.28558034 0.103368096 0.15136877 -0.5387662 0.379583
-0.42813745 0.24769698 0.36182803 -0.011087924 0.35465664 0.27443323 -0.042203635 -0.61924285
-0.39940098 -0.046125785 0.40565652 0.18552999 -0.07311709 -0.28686026 0.38743263 0.10311177
0.41504335 0.18266585 -0.11168808 0.56774014 -0.20013058 -0.5902953 0.19954203 -0.345683
-0.33077174 -0.55948013 -0.49511382 -0.052896734 -0.38834345 0.19098493 -0.39432386 0.49373776
0.53958386 -0.074207745 -0.019354647 0.19967346 -0.01876143 -0.5685293 -0.38962948 -0.2602793
0.28823128 0.09179046 -0.55330837 -0.5317457 0.42528236 0.42159975 -0.5599616 0.47432548
-0.224668 0.04664 -0.12788595 0.24553853 0.34994853 0.2804656 -0.31901318 -0.20907901

net.2.weight f4 [64, 64]
00000000: 34ef e43b ee62 6e3d e400 6c3c 3249 bf3d
00000010: 0829 d83d 88ab b83d bb11 bf3d 3830 7fbd
00000020: 8728 8dbd a2e5 8cbd 12f6 c63b 2b0d 15be
00000030: 5053 733d 5a08 c03d 6c9d 863d 1824 efbd
00000040: b023 39bc 02bd 263d 3ac8 473d df8d 97bd
00000050: 5b5d cb3d 3f77 b23c f83f b5bd e0c8 a5bc
00000060: 8e6c f23c 9a09 94bc 0e9c 60bd 9e74 0b3d
00000070: fad3 f23c 3a92 813d 2ea2 b6bd 71e3 b63c
00000080: 97da d4bd 4b7a 913d 28e7 ee3c e708 68bd
00000090: 7647 773d bea6 c53d 9c5d 913d da08 2abd
000000a0: 0c51 99bc d4e7 663b b8cb 483d d518 f8bd
000000b0: 9636 d03d fefb c4bc 060c d7bc 92cd 86bd
000000c0: 50b7 e03d 6334 893d 34d3 ffbc 55c9 c03d
000000d0: e802 0f3b 6405 b6bd 32c0 4a3d a2fa 333d
000000e0: e594 18bd ce24 9b3d 68bf 243d e870 f8bd
000000f0: 5fe6 23bd 0619 a23d 6c74 e63d 6080 aabd
00000100: ee83 073e e862 9ebd 9e02 06bd 1bb6 563c
00000110: bf58 16be 9867 6f3d 23f3 653d 5ef1 b73d
00000120: 5d07 1cbe 16e9 293d 7ba6 fcbd 5a6b c3bd
00000130: 5589 9abd 9612 25bd f5c3 63bd 2e24 273e
00000140: 5cdd 683d c677 ec3c 4304 953c c2a0 f0bc
00000150: f0a6 163e d2a5 b1bc 983e c2bc dfb1 92bd
00000160: 9d4a e6bd d787 8ebd 3df2 ad3d 3b1d 8ebd
00000170: 6c3e 963b ecd2 d9bc b4ff 70bd 9e54 cabc
00000180: 6a38 823d f6b6 b5bd 7c66 5cbd 41e9 c63d
00000190: 3c77 5abd 1867 093d 467a 983c a83e d13d
000001a0: fe0e cfbc 3ee0 7c3d 90e3 973d aecd 943c
000001b0: fd6f 1bbd 54e3 123e 204d 303a 48c9 1d3d
000001c0: d8c8 923b 4cf4 8ebd cf58 cfbc bd03 0a3d
000001d0: 4c0d f6bd 8c0d 8bbd 4e72 923d 95e4 9d3c
000001e0: ca6c fc3d 23d4 cf3d 4c6e c73d 2cfc 01be
000001f0: 0cac d43d 7eb7 f9bc 82a7 193e a8dc 8e3d
00000200: 0a3c 463d d049 763d 208b 733d d363 a4bd
00000210: 3864 e23d a045 fe3c 28f6 68bb 3e98 7c3c
00000220: 8480 71bc 158a 983d 7189 efbd 4c40 c63d
00000230: 2efb c2bc da61 b8bd e844 c7bc c6cd 023d
00000240: de9c f6bd 177b 0e3e 4c1d e93c 9096 fc3b
00000250: 52b6 33bd 7fce 073c 3a34 6c3c cc04 d63c
00000260: daf5 98bb a680 093e f7db 92bd 60e5 01be
00000270: 0456 c3bd 00ab a8b9 dc17 72bd b569 9abd
00000280: ae6b bc3d 2e54 c0bd c66d 82bb 1a0e b93c
00000290: 9fad cf3d a024 0e3e e67d 923d eac5 eb3d
000002a0: 9269 133d e813 aabd b60f a13d f84a a03d
000002b0: 1ee6 96bd ec4d 893d b0f1 59bc a88e bbbc
000002c0: a60d a03c 68a8 00bd 6ffd ed3d e25c b03c
000002d0: af03 0dbd 9647 6cbd d4cc 603c ddcc ac3c
000002e0: d87d efbc 6648 303d ea60 9e3d 84fe f33d
000002f0: 447c d4ba b71d c03d e44a 943d 7246 acbd
00000300: c069 c1bd ade2 28bd 22db 1f3d 6782 b7bd
00000310: bef0 1fbc 130a 263d 76ee 9ebc 065f dcbd
00000320: 0c6c bf3d 7061 023b 0d68 f33d 4e8b 733d
00000330: 6fcc bdbc fdc2 483d a358 ae3c 125a 763d
00000340: a954 e6bc 3ba1 04be c2aa f23d 6b1a 703d
00000350: e4ab f93d f5eb bc3d 9ad8 03bc 242b a2bc
00000360: bd34 8dbd 8a96 fd3d 00cb a43d 0edc edbc
00000370: a6f9 a9bd d89e 3cbd 32c4 213e 7b25 f83d
00000380: b700 013e f087 873d 1804 8e3c aeae b93d
00000390: 8349 52bd 60c4 f9bd 1ba2 a93d cff1 853d
000003a0: fc5f bbbd 8495 c8bd 9143 9cbd 4074 273d
000003b0: 1ec5 9d3d fb0c bb3c a046 183d 20cb 32ba
000003c0: a22f 7e3d 6880 513d b7b7 96bb d8d3 843d
000003d0: c03a 43bb ae2b 5f3d 1787 77bc 9086 333b
000003e0: 51e6 3d3e e8c2 b5bc 62c7 193d 7797 afbd
000003f0: ca97 df3d b852 ddbd 4fa0 f03d 121e adbc
0.006986523 0.058199815 0.014404509 0.09340133 0.10554701 0.09017092 0.09329554 -0.062301844
-0.068924956 -0.068797365 0.0060718143 -0.14555804 0.059405625 0.09376593 0.065729946 -0.11676806
-0.0113000125 0.040707596 0.048774935 -0.07400107 0.099299155 0.021785377 -0.08850092 -0.020237386
0.029592779 -0.018070985 -0.054836325 0.03404676 0.029642094 0.06326719 -0.08917652 0.02232525
-0.10393255 0.07103404 0.029162958 -0.056649115 0.060370885 0.09650944 0.07097933 -0.041512348
-0.018715404 0.0035233395 0.049022406 -0.12114111 0.101666614 -0.02404594 -0.02625085 -0.06582178
0.10972464 0.06699445 -0.03122864 0.09413401 0.00218218 -0.08887747 0.049499698 0.043940194
-0.037251372 0.07575379 0.0402216 -0.1213091 -0.04001462 0.07914929 0.112526745 -0.08325267
0.13233921 -0.077337086 -0.03271734 0.013104941 -0.14682291 0.058448404 0.056140076 0.08981584
-0.15237184 0.041482054 -0.12336441 -0.0954196 -0.07545725 -0.040300928 -0.0556068 0.16322395
0.05685173 0.028865706 0.018190509 -0.02937353 0.14712119 -0.021685515 -0.023711488 -0.071628325
-0.112447 -0.06959503 0.08493469 -0.06939169 0.004585078 -0.026589833 -0.058837608 -0.024698552
0.063584164 -0.08872788 -0.053808674 0.097124584 -0.053336367 0.033545583 0.018612992 0.10217029
-0.025275704 0.06173729 0.07416451 0.018164482 -0.037948597 0.14344531 0.00067253597 0.038522035
0.004479509 -0.0698019 -0.025310902 0.03369497 -0.12014255 -0.06789693 0.07150708 0.019274035
0.12325437 0.10147884 0.09737834 -0.12693852 0.10384378 -0.030483004 0.15005305 0.069756806
0.0483971 0.060128987 0.05945885 -0.080268525 0.110542715 0.03103906 -0.0035547111 0.015417157
-0.014740113 0.07448212 -0.11696137 0.096802324 -0.023801412 -0.09003039 -0.02432485 0.031934522
-0.12041639 0.13914143 0.028456353 0.007708378 -0.043875046 0.008288979 0.014416749 0.026125334
-0.0046679797 0.13427982 -0.07170861 -0.12685156 -0.095378906 -0.00032170862 -0.059104785 -0.07539693
0.09200226 -0.09391056 -0.003980371 0.022589732 0.101405375 0.13881159 0.071529195 0.115123585
0.03598935 -0.08304578 0.07864325 0.07826799 -0.0736811 0.067043155 -0.013302252 -0.022895172
0.019537758 -0.031410605 0.11620604 0.021528665 -0.03442734 -0.057685457 0.01372071 0.02109378
-0.029234812 0.043037795 0.07733329 0.119137794 -0.001621135 0.09380668 0.07240847 -0.08411874
-0.09443998 -0.0412318 0.03902734 -0.08960419 -0.009761987 0.04053695 -0.019400816 -0.10760312
0.0934678 0.0019894503 0.118850805 0.059459023 -0.02316877 0.04901408 0.0212825 0.06014449
-0.028116541 -0.1295213 0.11848976 0.058618944 0.12190989 0.09224693 -0.008047247 -0.019795962
-0.06894825 0.12382229 0.08046532 -0.029035594 -0.0829957 -0.046049923 0.15797499 0.12116524
0.12597929 0.06617725 0.017335936 0.09066521 -0.051339637 -0.12195659 0.08282872 0.06540262
-0.09149167 -0.09794143 -0.07630075 0.04088235 0.07703613 0.022833338 0.03717673 -0.0006820429
0.062057145 0.05114785 -0.0045995372 0.064857185 -0.0029789656 0.054485016 -0.0151078915 0.0027393438
0.1854489 -0.022187665 0.037543662 -0.085738115 0.10917623 -0.10806793 0.117493264 -0.021132503

net.2.bias f4 [64]
00000000: 00ff 5fbd 6841 b8bd 444f 31be 10c3 1dbd
00000010: e51e 943d 2589 2c3d 38e8 803b 5294 893d
00000020: b068 dd3d 74e6 1a3d ce13 673d a587 04be
00000030: 961e 57bd d696 493c e3bf e0bc a3d5 c8bd
00000040: 5a2e d03c 4801 d73d 323f c93c dde6 e6bd
00000050: ca8b 123e 174b a83d c2bd 1f3e c7bf 9fbd
00000060: d6d1 33bd 1fdf 0e3d 7ea5 d6bd 3707 233d
00000070: 4b3f ed3c 1140 44bd b3ed c03d 4b57 cd3c
00000080: c2c7 e3bd bb45 763d 8a14 f33d 11dd 0c3e
00000090: 8db5 de3d 0426 cc3d 1f46 c9bd 4d2e 9bbd
000000a0: 9856 b03c bffa 10be 2d96 54bd 63ae 893d
000000b0: 4988 443c e180 553d ec0f ca3d 0806 f43d
000000c0: da5b 1d3d 2e87 673d 9092 5bbd 5807 25bc
000000d0: c91c b8bd 1c98 a63d 7b03 f5bd feef 933d
000000e0: 212b 103e 4321 ae3d 3a9b 13bc 36b7 b0bd
000000f0: 1123 5cbd 7cd1 0f3e 1a43 db3d 2f34 31bd
-0.054686546 -0.0899685 -0.17315394 -0.038516104 0.07232455 0.04212298 0.0039339326 0.06717743
0.10810983 0.037817433 0.05641537 -0.1294237 -0.052519403 0.0123040285 -0.027435249 -0.09806373
0.025412727 0.10498291 0.024566267 -0.112745024 0.14311138 0.08217447 0.1559973 -0.078002505
-0.043901287 0.034880754 -0.10480784 0.039801802 0.028960845 -0.04791266 0.094203375 0.025066039
-0.11122085 0.060125094 0.11869152 0.13756205 0.10874472 0.099681884 -0.09827828 -0.075771905
0.021525666 -0.14158152 -0.05190103 0.06722715 0.011995384 0.05212486 0.09866318 0.11915213
0.038417675 0.0565254 -0.05360657 -0.010072552 -0.08989865 0.08134481 -0.119635545 0.07223509
0.14078952 0.08502438 -0.009009177 -0.08628695 -0.05374438 0.14044756 0.10706158 -0.043262657

net.4.weight f4 [1, 64]
00000000: 6c85 113d aafe f63d a44c ddbc 067b d93d
00000010: 0745 09be 00fa a83d 5415 09be d298 40be
00000020: 9319 ea3d f92d 05bd a3a8 90bd 6a4f d5bd
00000030: 7865 783d 9cf9 a5bc e5f2 af3c c27d 15bd
00000040: bad0 19be 4e55 1bbd 6c7f c83c 0432 90bd
00000050: b2ca ed3d f20c 4e3d 2c2f 9f3d 8ebb cfbd
00000060: 1664 3e3c dfa5 cc3d 9e4c 863d 7363 7cbd
00000070: edb8 babc 9680 1a3e ffd1 ca3d 87c5 b2bd
00000080: a0a8 eb3c 8dd0 e03d 0d3f 1b3e 92a1 2cbd
00000090: 4817 abbd ef11 e53d bedd 07be 514c 8cbd
000000a0: f770 e4bd 3ebc e03c baf7 a5bd ebe4 9a3d
000000b0: 6065 f13c 27c6 1bbe e6ea debd e417 203e
000000c0: b761 973d 6c3f 3c3d 355c 6fbd 1dcb 223e
000000d0: 8223 cfbd 8fe2 e43d fa7c 10be 9c46 8f3d
000000e0: 7822 2e3d 5275 e0bd 722a 1d3d eccf 80bc
000000f0: be3e 17be 3dca ae3d 389c c13d e424 ae3d
0.03552763 0.12060292 -0.027014084 0.10619168 -0.13405238 0.08250809 -0.13387042 -0.18808296
0.11430659 -0.032514546 -0.07063415 -0.10415538 0.060643643 -0.020260625 0.021478126 -0.036496885
-0.15021029 -0.03792315 0.024474822 -0.0704079 0.11610927 0.050305314 0.07772669 -0.10143195
0.011620542 0.09992575 0.06557582 -0.06161828 -0.022793258 0.15088114 0.09903335 -0.087290816
0.02876693 0.10977278 0.1516077 -0.042146273 -0.0835405 0.11185061 -0.13268182 -0.06850494
-0.11154359 0.02743351 -0.08103891 0.07563194 0.029467285 -0.15212308 -0.10884647 0.15634114
0.073916845 0.04595892 -0.058437545 0.15897794 -0.101141945 0.11176025 -0.14110175 0.069958895
0.04251334 -0.10959877 0.038370557 -0.015724145 -0.14770028 0.08534668 0.094536245 0.0850313
