cstr/data/trained_models/seed_5/td3/models/best_model_actor.pth (torch, 21121 bytes, 5 tensors)

net.0.weight f4 [64, 3]
0	0x3dd3b153	0.10336556
1	0x3e37274d	0.17886086
2	0xbea2f38d	-0.3182644
3	0xbeab72b3	-0.33485946
4	0xbf11acc8	-0.5690427
5	0xbf0848cf	-0.532361
6	0x3f134e96	0.5754179
7	0x3f04f349	0.51933724
8	0x3e334027	0.17504941
9	0x3f0c5ef7	0.54832405
10	0xbe4c158d	-0.19930096
11	0xbe823a13	-0.25434932
12	0x3f02db63	0.5111601
13	0xbe0fcf88	-0.1404401
14	0x3d543519	0.05180845
15	0x3ebec587	0.37260076
16	0x3e943577	0.2894704
17	0xbea39912	-0.3195272
18	0xbe342d19	-0.17595328
19	0xbeaed99f	-0.34150407
20	0x3e226f9d	0.1586289
21	0xbe53f4e5	-0.20698889
22	0x3dfdee64	0.12398985
23	0x3cdc0a9f	0.026860533
24	0x3f06f258	0.5271354
25	0x3ca39604	0.019968994
26	0x3e905ea3	0.28197202
27	0x3e689a81	0.22715189
28	0x3ee60f8d	0.4493374
29	0xbe31a6e1	-0.17348816
30	0x3f0502cb	0.51957387
31	0x3eb4c233	0.35304412
32	0xbe912301	-0.28347018
33	0x3ec2bfc2	0.38036925
34	0x3f136982	0.5758287
35	0xbe942b98	-0.2893951
36	0xbe669a07	-0.22519694
37	0x3eca391a	0.3949669
38	0x3eee59bd	0.4655284
39	0x3e110f78	0.14166057
40	0x3e07a0d4	0.13244945
41	0x3eeaeaa7	0.4588215
42	0x3eed45f9	0.46342447
43	0xbefebd2e	-0.49753708
44	0xbeacfbee	-0.33785957
45	0x3eedcd74	0.4644581
46	0x3e719321	0.23591281
47	0xbe8077a6	-0.25091285
48	0xbdd76568	-0.105173886
49	0x3f22c498	0.6358123
50	0xbe87c65a	-0.26518518
51	0x3ecb8ec1	0.3975735
52	0x3e99f1bc	0.3006724
53	0xbf15383b	-0.58288926
54	0xbf1853c1	-0.595028
55	0x3e38061b	0.17971079
56	0x3e85cd2c	0.26133096
57	0x3f0a0e3c	0.5392797
58	0x3dc4c78e	0.096083745
59	0x3f1c6dd5	0.6110509
60	0xbed21479	-0.41031244
61	0x3eb0733e	0.34462923
62	0xbf0e6270	-0.55618954
63	0x3ec8c3b9	0.39211825
64	0x3ced1d4d	0.028944636
65	0x3e980111	0.29688314
66	0x3e7c7756	0.24654898
67	0xbee29203	-0.44252023
68	0xbcbc52b3	-0.022988653
69	0x3deb1011	0.11477674
70	0x3d0eb794	0.034843042
71	0xbeab5405	-0.3346254
72	0xbe477c2c	-0.19480962
73	0xbdc571cd	-0.096408464
74	0xbe630452	-0.22169617
75	0x3f02d1ca	0.5110136
76	0x3e903b60	0.281703
77	0x3e4a1278	0.19733608
78	0xbe313baf	-0.17307924
79	0xbeefd75e	-0.46844
80	0x3dfb9ea5	0.122861184
81	0x3f0e9411	0.5569468
82	0x3e9ca1a4	0.30592072
83	0xbed22069	-0.41040352
84	0xbcf4285d	-0.029804403
85	0x3d11c4ed	0.035588194
86	0x3ea1b0c4	0.31580174
87	0x3e97dc52	0.2966028
88	0xbef25b86	-0.47335452
89	0xbef90700	-0.48638153
90	0x3e602fa1	0.21893169
91	0x3e586daa	0.21135584
92	0x3e924dd8	0.28575015
93	0x3ec9eac9	0.3943694
94	0x3f18d631	0.5970183
95	0xbe216910	-0.15762734
96	0xbf0d858c	-0.552819
97	0x3e8a6d25	0.27036396
98	0x3f064ab9	0.5245777
99	0xbed75040	-0.42053413
100	0xbe94ceea	-0.29064113
101	0x3efd1904	0.49433148
102	0x3eeb8853	0.46002445
103	0xbde91e07	-0.113826804
104	0xbe8fcc31	-0.28085473
105	0x3e5a9aa7	0.21348058
106	0xbf000877	-0.50012916
107	0xbe85fe0e	-0.2617039
108	0xbd99042b	-0.07471498
109	0xbe0ce7df	-0.13760327
110	0x3e739a9d	0.23789449
111	0x3c59ad76	0.013285985
112	0xbeaf0287	-0.34181616
113	0x3cf389de	0.029728826
114	0x3d64000b	0.055664103
115	0x3ecfa64b	0.4055656
116	0x3dfdf4ea	0.12400229
117	0xbe4e26f0	-0.20132041
118	0x3e6641b6	0.22486004
119	0x3e883602	0.26603705
120	0x3dc693a1	0.09696127
121	0xbe7dbab9	-0.2477826
122	0x3e87f574	0.26554453
123	0x3dcc2661	0.09968258
124	0x3e9fbcbd	0.31198683
125	0xbe250ccf	-0.16118167
126	0xbc9786ff	-0.018496988
127	0x3ed31e4c	0.41234052
128	0x3da30308	0.079595625
129	0x3ea7f5d9	0.32804754
130	0xbe07c368	-0.13258135
131	0x3f0fdecb	0.5619933
132	0x3d75f07d	0.0600438
133	0xbe65bfcb	-0.22436444
134	0x3e51b277	0.20478235
135	0xbcef7552	-0.029230747
136	0x3eeca19c	0.46217048
137	0xbda5e816	-0.081009075
138	0x3ecaff6c	0.39647996
139	0xbe8610f6	-0.26184815
140	0xbd3b0034	-0.04565449
141	0x3e65537a	0.22395125
142	0xbefa1d7a	-0.48850614
143	0x3e8f5e64	0.28001702
144	0x3e949fe0	0.29028225
145	0x3da7e328	0.081976235
146	0xbc87a584	-0.016558416
147	0xbd2376aa	-0.03990809
148	0x3e9e1275	0.30873457
149	0x3eb7c8c6	0.35895365
150	0xbe8e670f	-0.27813002
151	0x3e66c2c0	0.22535229
152	0xbefd2524	-0.494424
153	0x3d75260e	0.059850745
154	0xbe2d48da	-0.16922322
155	0xbe79d0d6	-0.24396071
156	0xbee037c1	-0.43792537
157	0x3f0a59e8	0.54043436
158	0x3db7840c	0.08960733
159	0x3da6686c	0.08125386
160	0x3d8e2845	0.069412746
161	0xbda4caab	-0.08046468
162	0xbee489a7	-0.4463627
163	0x3de13c42	0.109978214
164	0xbee69ab0	-0.45039892
165	0xbe5c9c54	-0.2154401
166	0x3e9d9fab	0.3078588
167	0x3f04707e	0.5173415
168	0xbe3cf574	-0.18453008
169	0xbf1199cc	-0.568753
170	0x3f108bf8	0.56463575
171	0x3ea76357	0.32692978
172	0x3eb93747	0.36174986
173	0xbe255db2	-0.16149023
174	0xbdf3a498	-0.11896628
175	0x3d673e1b	0.056455713
176	0x3e10b10b	0.14130037
177	0x3d3b09f4	0.04566379
178	0xbeb5b719	-0.35491255
179	0x3f1d8d1a	0.6154343
180	0x3e88c4fb	0.26712784
181	0xbd8f8917	-0.0700857
182	0xbec64320	-0.38723087
183	0xbe91965a	-0.28435022
184	0xbe4e32f4	-0.20136625
185	0xbdc53767	-0.09629708
186	0x3e63be0b	0.22240464
187	0xbe1f23c8	-0.15540993
188	0x3e2ac00f	0.16674827
189	0xbec00134	-0.37500918
190	0xbe015d43	-0.12633233
191	0x3e859a99	0.2609451

net.0.bias f4 [64]
0	0x3f21c515	0.6319135
1	0xbef9b8ee	-0.48773903
2	0x3d971d94	0.073786885
3	0x3e939b9b	0.28829655
4	0xbde0cb9e	-0.10976337
5	0x3e10eed1	0.14153601
6	0x3edc8e2d	0.43077222
7	0xbf12dc5e	-0.57367504
8	0x3eb7bf43	0.3588811
9	0xbf12f368	-0.5740266
10	0x3dc5a69d	0.096509196
11	0x3ec62bb4	0.38705218
12	0xbe865f6e	-0.26244682
13	0xbd896939	-0.06709523
14	0xbf22ed6e	-0.6364354
15	0xbdde2af6	-0.10848038
16	0x3ececd6c	0.403911
17	0x3e9453de	0.28970236
18	0x3e4c1603	0.19930272
19	0xbd24763f	-0.04015183
20	0xbe723c7d	-0.23655887
21	0x3ef34cd5	0.47519556
22	0x3e4c39e8	0.19943964
23	0x3e31b1e4	0.17353016
24	0x3ebacbf3	0.36483726
25	0xbe299101	-0.16559221
26	0xbd3469ee	-0.044046335
27	0x3f11b7c6	0.5692104
28	0x3f113b0c	0.56730723
29	0xbf15e966	-0.5855926
30	0xbf02d471	-0.5110541
31	0xbe0ddcf5	-0.1385382
32	0x3e4132ee	0.18867084
33	0xbe9aaf90	-0.3021207
34	0x3e800738	0.25005507
35	0xbed70e95	-0.42003313
36	0xbd8eee67	-0.069790654
37	0x3eebc4ac	0.46048486
38	0xbe12653f	-0.14296435
39	0xbe1757e7	-0.14779626
40	0x3e252773	0.1612833
41	0x3ee4521e	0.445939
42	0x3e338ce5	0.17534216
43	0x3c9610ca	0.018318553
44	0xbd8468b6	-0.064652845
45	0xbefa816a	-0.4892686
46	0xbe8f6d81	-0.28013232
47	0x3f1b540b	0.60675114
48	0xbefcb48f	-0.49356505
49	0x3eaf5980	0.3424797
50	0xbe4d4c3b	-0.20048611
51	0x3e6bdb97	0.23032986
52	0x3e94c3af	0.29055545
53	0x3f065251	0.52469355
54	0xbeb76d67	-0.35825655
55	0xbd379782	-0.044822223
56	0xbec980a6	-0.39355963
57	0x3dd69297	0.104771785
58	0xbe8bec2e	-0.27328628
59	0x3d1879eb	0.037225645
60	0xbf103515	-0.56330997
61	0xbe05713d	-0.13031478
62	0xbef01c70	-0.46896696
63	0xbefa1e90	-0.48851442

net.2.weight f4 [64, 64]
0	0x3d28317b	0.041062813
1	0x3ba73dc0	0.0051037967
2	0xbd151010	-0.03639227
3	0xbd216ae9	-0.039408598
4	0x3e03ec11	0.12883021
5	0x3cb71c44	0.022352345
6	0x3d6d8eae	0.057997398
7	0x3dff4f46	0.12466292
8	0x3e08b37f	0.13349722
9	0x3daf9a84	0.085743934
10	0x3d967f44	0.07348493
11	0x3afe6425	0.0019408508
12	0xbdc4fe02	-0.09618761
13	0x3db53cb0	0.08849466
14	0x3d4ef6e0	0.050528407
15	0xb9b14edb	-0.00033818823
16	0x3ba07688	0.0048969425
17	0x3ddc002e	0.10742222
18	0xbd5b1fdc	-0.05349718
19	0x3b0a0b08	0.0021063704
20	0x3d5a54d4	0.053303555
21	0x3d04f87a	0.03246353
22	0x3da832c1	0.082128055
23	0x3e02e6a9	0.12783302
24	0xbd20dafe	-0.039271347
25	0x3dd874db	0.105691634
26	0xbddb2714	-0.10700813
27	0x3cdb4777	0.026767476
28	0x3ce7c95d	0.02829426
29	0xbb763920	-0.003757067
30	0xbbb44419	-0.005501282
31	0xbce1eeae	-0.027579632
32	0xbd0a89c3	-0.033822786
33	0x3da409ec	0.08009705
34	0xbd1a3cc4	-0.037655607
35	0x3e4f6287	0.20252429
36	0xbd312750	-0.043250382
37	0x3d43acfa	0.047772385
38	0x3d7f5436	0.06233617
39	0x3d882dd6	0.066493675
40	0xbcd78e58	-0.026312992
41	0x3d519e36	0.051176272
42	0xbc057372	-0.0081452
43	0xbda88e4f	-0.08230268
44	0x3e422ada	0.18961659
45	0x3deefe82	0.11669637
46	0x3ce5f84b	0.028072497
47	0x3e0c407b	0.13696472
48	0x3d2552e7	0.040362265
49	0xbd0a8590	-0.03381878
50	0xbc54dd00	-0.012992144
51	0x3d3039ea	0.04302398
52	0x3d802b03	0.06258204
53	0xbdc809f9	-0.09767527
54	0xbd2d0fb4	-0.042251304
55	0xbe084793	-0.13308553
56	0xbcc5b0d8	-0.024132177
57	0x3d2c3fff	0.04205322
58	0xbda1762c	-0.078838676
59	0x3daecab3	0.085347556
60	0xbc723fec	-0.014785748
61	0x3d4b6ba4	0.0496632
62	0x3e48674e	0.19570658
63	0xbd28876c	-0.041144773
64	0x3d906908	0.07051283
65	0xbc97af68	-0.018516257
66	0xbdae6e8e	-0.085171804
67	0xbded30e2	-0.11581589
68	0xbde62904	-0.11238292
69	0x3d1a4e94	0.037672594
70	0x3ca230f0	0.019798726
71	0xbdbfa694	-0.09357944
72	0xbc863a50	-0.016385227
73	0x3c02d710	0.007985845
74	0x3b894fe0	0.00419043
75	0x3d8a3ff6	0.06750481
76	0x3df60e3a	0.12014432
77	0x3d9f55a0	0.077800035
78	0x3d6e1c94	0.058132723
79	0x3d9ca63a	0.07648893
80	0xbd7f97f8	-0.062400788
81	0xbd4e4b90	-0.05036503
82	0xbd685880	-0.056725025
83	0x3cae26f8	0.021258816
84	0x3ce77228	0.028252676
85	0x3ceb4f40	0.028724313
86	0xbda247f6	-0.07923882
87	0xbdfc2e72	-0.12313546
88	0xbd14d5e0	-0.03633678
89	0x3d704df8	0.058668107
90	0xbdeef8ac	-0.11668524
91	0x3d51557c	0.051106915
92	0x3d3e70a4	0.04649414
93	0xbd8f758e	-0.07004844
94	0x3dc3f320	0.09567857
95	0xbd8e68da	-0.069535926
96	0x3d661c1c	0.05617915
97	0xbbf65220	-0.0075171143
98	0xbdc331a0	-0.095309496
99	0xbd3d97b0	-0.04628724
100	0x3d77de9c	0.06051503
101	0xbdca1d72	-0.098688975
102	0x3dd95696	0.10612218
103	0xbd3cd830	-0.04610461
104	0xbd3637bc	-0.044486746
105	0xbdd4a97a	-0.103838876
106	0xbdd36aa0	-0.103230715
107	0xbde969b2	-0.11397113
108	0x3cfa2660	0.030535877
109	0x3dd02eee	0.10165201
110	0x3d303cec	0.04302685
111	0x3dcc3cca	0.09972532
112	0xbdbc64c4	-0.09198907
113	0xbdcce17e	-0.10003947
114	0x3de7733e	0.113012776
115	0x3c669fe0	0.014076203
116	0x3d91038a	0.07080753
117	0x3d69cdcc	0.05708103
118	0x3cfddff0	0.03099057
119	0xbd6e9190	-0.058244288
120	0x3de3dfd8	0.11126679
121	0xbcc06d28	-0.02348955
122	0xbded1e4e	-0.11578046
123	0x3d40d50c	0.047078177
124	0xbdb11262	-0.08646084
125	0x3ce118e0	0.027477682
126	0x3df47420	0.119362116
127	0xbd514ddc	-0.051099643
128	0xbd419648	-0.04726246
129	0xbbb02520	-0.0053755194
130	0xbcb10550	-0.021608979
131	0x3c05d710	0.008168951
132	0xbc679590	-0.01413478
133	0x3df5569e	0.119794115
134	0x3d934e36	0.07192652
135	0xbad2a380	-0.0016070455
136	0xbd0a6928	-0.03379169
137	0x3c33d6e0	0.010976523
138	0x3db362c6	0.08759074
139	0xbd790d18	-0.060803503
140	0xbd303a98	-0.04302463
141	0x3dbfabf4	0.09358969
142	0xbd6b46e4	-0.057440653
143	0x3d831904	0.06401256
144	0xbddbaaf2	-0.107259646
145	0xbd82fd30	-0.06395948
146	0xbc9d05a8	-0.019167736
147	0xbdf46bae	-0.11934601
148	0x3daa425c	0.08313438
149	0xbd85bb9e	-0.06529926
150	0x3daee304	0.085393935
151	0xbb2b6880	-0.0026154816
152	0x3d2f4524	0.042790547
153	0x3d7cbdc0	0.061704397
154	0xbd92a7d4	-0.07160917
155	0xbc5c4a80	-0.013445497
156	0x3c3dcf50	0.011585072
157	0xbcee5f48	-0.029098168
158	0x3df3f08a	0.119111136
159	0xbdf75db0	-0.12078416
160	0xbdd32abe	-0.10310887
161	0xbc865518	-0.016397998
162	0xbdaa613c	-0.08319327
163	0xbd5c11f4	-0.05372806
164	0x3dd0d220	0.10196328
165	0x3a39d500	0.00070889294
166	0x3dd48dea	0.103786305
167	0x3dd058ec	0.101732105
168	0x3d8af84c	0.0678564
169	0x3dc2815a	0.09497328
170	0xbd9f0306	-0.077642485
171	0xbdefd100	-0.117097855
172	0xbd61309c	-0.054978
173	0xbd8e4776	-0.06947224
174	0x3d143054	0.0361789
175	0x3d153e4c	0.036436364
176	0xbac0f580	-0.0014721602
177	0xbd9de0c8	-0.07708889
178	0x3c4540a0	0.012039334
179	0xbde9a1c2	-0.11407806
180	0xbd9511ae	-0.07278763
181	0xbd48ffd0	-0.049072087
182	0x3db1dd82	0.086848274
183	0x3df1d878	0.11808866
184	0x3d957cc2	0.07299186
185	0x3db22012	0.08697523
186	0xbc9287b0	-0.017886966
187	0xbd98f882	-0.07469274
188	0x3da9db74	0.082938105
189	0x3df799d0	0.12089884
190	0x3c3481c0	0.011017263
191	0x3d76a3c4	0.060214773
192	0xbd978c87	-0.0739985
193	0x3d239ca4	0.039944306
194	0xbcd667ed	-0.026172603
195	0x3d86ebe8	0.06587964
196	0xbcb19c63	-0.021681016
197	0x3e083087	0.13299762
198	0x3e0834df	0.13301419
199	0x3cc66b80	0.024221182
200	0xbdd08fbe	-0.10183667
201	0x3e19505a	0.14972058
202	0x3dd6b766	0.10484199
203	0x3dc42a3c	0.09578368
204	0x3d694230	0.056947887
205	0x3d9090de	0.07058881
206	0x3e0b26d0	0.13589025
207	0x3c2abf22	0.010421546
208	0xbc6d8bb0	-0.014498636
209	0x3e0414cd	0.1289856
210	0xbd556887	-0.05210164
211	0x3b1aa618	0.0023597535
212	0xbd148cd0	-0.0362671
213	0x3d8f4598	0.06995696
214	0x3e17177c	0.14755052
215	0xbdec7158	-0.11545056
216	0x3db05049	0.08609063
217	0xbd85dcfa	-0.065362886
218	0xbd9b66a8	-0.075879395
219	0xbd92e173	-0.07171907
220	0x3ddde281	0.10834218
221	0x3df986ab	0.12183889
222	0x3e30d949	0.17270388
223	0x3e0296b0	0.12752795
224	0xbd47bbfd	-0.048763264
225	0x3c959358	0.018258736
226	0xbd49a55c	-0.049229965
227	0x3cf7930c	0.030221485
228	0x3db35b86	0.08757691
229	0xbd2143b1	-0.039371196
230	0xbe19cf6a	-0.15020528
231	0xbc384f60	-0.011249393
232	0xbd6a0421	-0.057132844
233	0x3dd0e8de	0.10200666
234	0xbe1b1e70	-0.1514833
235	0x3d52e87e	0.051491253
236	0x3dc45aed	0.09587655
237	0x3d31f794	0.043449
238	0x3dbea9cd	0.09309731
239	0xbdd9b5bf	-0.106303684
240	0xbcad1620	-0.021128714
241	0xbdc04620	-0.09388375
242	0xbdf7d3fc	-0.1210098
243	0xbd67fee5	-0.05663957
244	0x3cd3f433	0.02587328
245	0x3dbc9515	0.09208123
246	0xbb3a7780	-0.0028452575
247	0x3d978560	0.07398486
248	0x3b00cc40	0.0019652992
249	0xbcc29cfe	-0.0237565
250	0xbd21feb0	-0.03954953
251	0x3e055ffb	0.13024895
252	0x3e5e2c0f	0.21696495
253	0x3dab80c0	0.083741665
254	0x3d9d7da0	0.07689977
255	0xbd406f64	-0.04698123

net.2.bias f4 [64]
0	0xbddf2337	-0.108953886
1	0xbc1d5da0	-0.0096048415
2	0xbd4e626c	-0.05038683
3	0x3dccfe1b	0.10009404
4	0x3c45165f	0.012029259
5	0xbdd069f8	-0.10176462
6	0xbcb2e24f	-0.021836428
7	0xbc7140d9	-0.014724934
8	0xbdbf5486	-0.093422934
9	0x3d8b155b	0.067911826
10	0x3e07e100	0.13269424
11	0x3d9b5a60	0.07585597
12	0xbd61cdb9	-0.055127833
13	0x3d848541	0.06470729
14	0xbdfc1425	-0.1230853
15	0x3ddefb7c	0.108878106
16	0x3dfaa061	0.12237621
17	0xbc388236	-0.011261513
18	0xbd82e77a	-0.06391807
19	0xbde014f2	-0.10941495
20	0xbd832e5c	-0.06405327
21	0xbd5739a6	-0.052545212
22	0x3de3b284	0.111180335
23	0x3d7555fb	0.05989645
24	0x3d750d44	0.059827104
25	0xbe22a950	-0.158849
26	0x3c2371ee	0.009975893
27	0xbde1725b	-0.1100814
28	0x3d481d88	0.04885629
29	0x3e10bf32	0.14135435
30	0xbdc1db5a	-0.09465666
31	0x3e1526c6	0.14565572
32	0x3d85a488	0.065255225
33	0xbd8d21f8	-0.06891245
34	0x3e05bdf5	0.13060744
35	0xbdd4465e	-0.10364984
36	0xbdf8aef0	-0.12142742
37	0x3e0e0a4c	0.13871115
38	0xbdfd0d26	-0.123560235
39	0xbdfc034f	-0.123053186
40	0xbd9a61d2	-0.07538189
41	0xbdcbc718	-0.099500835
42	0xbdbfba9b	-0.09361764
43	0xbd610434	-0.05493565
44	0x3d665cea	0.056240954
45	0x3d83fc1d	0.06444571
46	0xbc459fe0	-0.012062043
47	0x3ddd4f4b	0.108061396
48	0x3e148a8e	0.1450598
49	0x3da3afca	0.079925135
50	0xbd858ee0	-0.06521392
51	0xbc69a785	-0.014261131
52	0xbde38588	-0.111094534
53	0x3d251497	0.04030284
54	0x3c2267da	0.009912455
55	0xbd53c1c1	-0.05169845
56	0x3aa54600	0.0012609363
57	0xbddc8634	-0.10767785
58	0x3c005818	0.007833503
59	0xbcac3690	-0.021022111
60	0x3d9fa695	0.07795445
61	0xbbaada65	-0.005214023
62	0xbdc6a717	-0.096998386
63	0x3da71a94	0.08159366

net.4.weight f4 [1, 64]
0	0x3e08ac5c	0.13347
1	0xbd3cf358	-0.04613051
2	0x3d355a90	0.04427582
3	0x3e34ff90	0.17675614
4	0xbd1a8c9f	-0.037731763
5	0xbcfc3735	-0.030788044
6	0xbdf51296	-0.119664356
7	0x3d137199	0.035997007
8	0x3e0bdbaf	0.13658021
9	0x3e097e03	0.13426976
10	0xbe2b7842	-0.16745093
11	0x3ce79865	0.02827091
12	0x3dc670c6	0.096894786
13	0xbdcb5a7a	-0.099293664
14	0x3e1b7873	0.15182666
15	0xbdea8a7c	-0.11452195
16	0xbda27ad5	-0.079335846
17	0x3e2fdc3f	0.17173861
18	0x3d45ff14	0.048338965
19	0xbd62096e	-0.055184774
20	0x3d21c3a0	0.039493203
21	0xbe073f46	-0.1320773
22	0xbd8519da	-0.064990714
23	0xbccb3fed	-0.024810756
24	0x3e0462f6	0.12928376
25	0x3e80f3a5	0.25185886
26	0x3decdef1	0.1156596
27	0x3e32ccef	0.17460988
28	0xbdd932ca	-0.1060539
29	0xbd44243e	-0.047886126
30	0xbd280114	-0.041016653
31	0x3e06e6f9	0.13174047
32	0x3e3808d3	0.17972116
33	0x3d8295d6	0.06376235
34	0xbcc3588b	-0.023845932
35	0xbcff1aa0	-0.031140625
36	0x3d919915	0.07109276
37	0xbe338f95	-0.17535241
38	0x3c78a5d0	0.0151762515
39	0x3e017dcc	0.12645644
40	0x3df02fbf	0.11727857
41	0xbc9df1b0	-0.019280285
42	0xbdeea6c3	-0.11652901
43	0xbd9f8086	-0.07788186
44	0xbdbb963d	-0.09159515
45	0x3db69cc2	0.08916618
46	0xbd265440	-0.04060769
47	0x3dd83129	0.105562516
48	0xbd494e45	-0.04914691
49	0x3e018b61	0.12650825
50	0x3dc33e6a	0.09533389
51	0xbe2c93ca	-0.16853252
52	0x3d49f618	0.04930696
53	0x3dd12c5d	0.1021354
54	0xbdc6b0f9	-0.097017236
55	0x3da56bf0	0.08077228
56	0xbd1a62b4	-0.037691787
57	0x3dc82ad0	0.09773791
58	0x3d7a47b5	0.06110354
59	0x3cf91998	0.030407712
60	0xbdc2b2d5	-0.09506766
61	0xbd730e48	-0.05933979
62	0xbe36c3e3	-0.17848162
63	0x3cbc8bc0	0.023015857
