cstr/data/trained_models/seed_2/td3/models/best_model_actor.pth (torch, 21121 bytes, 5 tensors)

net.0.weight f4 [64, 3]
000000 5a e4 0c 3e af b1 05 3d 97 47 1d 3f 2e bd 1b 3e
       0.13758984 0.032640155 0.6143736 0.15208885
000010 c2 63 da be af a2 bb 3c 4f 56 88 3e 19 a5 52 3e
       -0.42654234 0.022904722 0.26628348 0.20570792
000020 a0 f8 ab 3d 13 a6 c4 be b9 12 45 be a9 b5 26 bd
       0.08397031 -0.38407955 -0.19245423 -0.04070059
000030 52 ee 49 3e f2 9a be 3e f1 db 99 be 14 e2 a9 3e
       0.19719818 0.3722759 -0.30050614 0.33180296
000040 db d3 09 3f 63 24 b0 3d 24 a8 1f be d6 af 91 be
       0.5383889 0.0860069 -0.15591484 -0.28454465
000050 60 86 c6 be 5a 1a 80 be 5a 02 07 be 64 50 c5 3e
       -0.38774395 -0.25020105 -0.13184491 0.38537896
000060 12 64 45 3e 69 57 a3 be 85 22 98 be d5 71 ca 3e
       0.19276455 -0.31902626 -0.29713836 0.39539972
000070 dd cd d8 be 65 b9 5a bb 43 34 2e 3c af c9 29 bf
       -0.4234456 -0.0033374664 0.010632577 -0.6632337
000080 64 3a ea 3e 1a f7 b3 be c0 bd f0 3e b3 fd a5 3e
       0.45747674 -0.3514946 0.47019768 0.3242012
000090 c2 7d 4f be 47 63 99 be f7 15 e2 3e 83 18 72 be
       -0.20262817 -0.29958555 0.44157383 -0.23642163
0000a0 ec ae 03 3f 61 ca fd 3a 0c 48 14 3f d9 ae a1 3e
       0.51438785 0.0019362682 0.57922435 0.3157871
0000b0 a9 5d 24 be 8b 3c 9d bd 37 30 f4 3d 9e 38 ab 3e
       -0.16051354 -0.07677563 0.11923259 0.33441633
0000c0 e5 8e 9a 3d c9 5a b6 be 1b 20 f1 3d 16 e5 84 bd
       0.07546786 -0.3561614 0.11773702 -0.06489007
0000d0 0e 7f 06 3f 77 b0 81 3e 98 5d ca be 8e a7 c8 be
       0.5253762 0.25329944 -0.3952453 -0.39190334
0000e0 4a 7d 9d be 24 ce a7 3e fa 4a 3a bd 70 6d 23 be
       -0.3075965 0.3277446 -0.04548166 -0.15959716
0000f0 6e 22 28 3e f1 4b ab 3e 60 3a c1 3d f4 c2 4a 3e
       0.16419384 0.33456376 0.09434962 0.19800931
000100 df 4f fe bd c0 5d a3 3d c8 ee d3 3e 95 c5 1f bc
       -0.12417578 0.07976866 0.41393113 -0.009751697
000110 ec 84 25 be b4 4c 37 be 52 06 22 3e 40 a1 97 be
       -0.16163987 -0.17900354 0.15822724 -0.2961521
000120 0d 35 0d 3f f3 72 bd 3e 89 c9 c9 be 0e 37 7c bd
       0.55159074 0.37001762 -0.39411572 -0.06157594
000130 9d 92 ef 3e e6 ef 63 be 35 0a cd be e2 69 9e 3e
       0.46791545 -0.22259483 -0.4004685 0.30940157
000140 7e b4 f4 be 13 5b 18 be e9 5e 54 be 04 bf 76 be
       -0.47793955 -0.14878492 -0.2073933 -0.24096304
000150 6b 5b 08 3f c9 20 56 3e cb c9 58 be 38 b5 87 3c
       0.5326449 0.20910944 -0.21170728 0.016565904
000160 e4 43 8f bd 4f 19 0a be 55 a6 7a 3e 03 aa 51 be
       -0.06995371 -0.13486217 0.24477513 -0.2047501
000170 9e 6c 87 3e 60 0b 8d bd a7 96 de be c9 d3 18 3f
       0.26450056 -0.06886935 -0.43474314 0.5969816
000180 25 24 0f 3f 26 61 a7 be eb d0 fe bc 6b 0d 9c be
       0.5591453 -0.32691306 -0.03110548 -0.30478987
000190 ed 02 aa 3e 24 f0 97 3e f9 6b 33 3e e7 38 51 be
       0.33205357 0.296754 0.17521657 -0.20431863
0001a0 d0 f3 dd 3a 6c 1b c1 3e 85 7e 93 3e 74 92 2a 3f
       0.0016933624 0.37716234 0.28807464 0.6662972
0001b0 e8 aa 64 3e 31 66 10 bf 03 27 d3 be c1 c6 c0 3e
       0.2233082 -0.5640593 -0.412407 0.37651637
0001c0 84 54 ff bd 6f 7b 02 be 90 4c 9e 3e 04 df 3a be
       -0.12467292 -0.12742399 0.30917788 -0.18249136
0001d0 b9 85 d4 be 9f 6f 74 be 6c ad 7e bd fd e7 32 be
       -0.41508272 -0.23870705 -0.062177107 -0.17471309
0001e0 42 46 2b 3e ae 89 47 be 7c 1f 2e 3f 50 79 81 3e
       0.1672602 -0.19486114 0.6801679 0.25287867
0001f0 aa f7 c6 be 43 fd 80 be 60 00 77 be 55 e8 b3 3e
       -0.38860828 -0.25193223 -0.24121237 0.35138193
000200 f8 00 5d be 80 74 cb 3c 86 f2 e2 3e d6 01 2b be
       -0.21582401 0.024835825 0.44325656 -0.16699919
000210 7e 02 f4 3b b0 cc 4d be 67 65 0c 3f a2 cc 59 3e
       0.007446586 -0.20097613 0.5484223 0.21269467
000220 13 06 2d bd 4b e9 a0 be 19 11 f7 3e e7 67 49 3e
       -0.04224212 -0.31427988 0.48255232 0.19668542
000230 ca 6d 41 3e 44 18 99 3e c8 7e 19 3f 3f 3b 55 3e
       0.18889537 0.29901326 0.5995908 0.20823382
000240 34 5f 01 bf 72 9a 52 be 6f 0a 52 be 3f 13 15 3f
       -0.50535893 -0.20566729 -0.20511793 0.5823249
000250 5a 31 82 3e 62 36 40 be 3e 7d 89 3e 9d ac ba be
       0.25428277 -0.18770745 0.26853365 -0.36459818
000260 d7 8b 15 3f bf b8 27 be 25 b2 43 3e 3e 5b c4 3e
       0.58416504 -0.16379069 0.19110925 0.38350862
000270 c4 77 e2 3e 71 48 2c be f9 91 20 3f d2 05 e8 3d
       0.44232 -0.16824509 0.62722737 0.11329235
000280 a9 c6 1a be 41 66 0d bf 57 0b 1c 3e 73 8c b7 bd
       -0.15114845 -0.5523415 0.15238701 -0.089623354
000290 32 ee b5 bd 24 5f ca bd 7c f9 f7 3e d5 40 e3 bd
       -0.08883323 -0.09881428 0.4843253 -0.1109635
0002a0 0b 7b 5d be 5b 2f 42 be 1f 6f 17 be 9b 61 ad be
       -0.21628968 -0.18963377 -0.14788483 -0.3386353
0002b0 7c b8 08 3f de 0b 0a 3f d6 16 c1 be 85 23 b8 be
       0.534065 0.5392436 -0.37712735 -0.359646
0002c0 8d 73 d4 3d 10 ee 30 3e 39 c0 20 be 3c 42 ea be
       0.10373602 0.17278314 -0.15698327 -0.45753658
0002d0 8f 85 07 3f a0 08 23 bc 4f 76 fb 3e ff 3c 73 be
       0.5293817 -0.009950787 0.491137 -0.23753737
0002e0 11 c1 7d be 97 37 3f 3e 3d 8b 21 3d 72 f6 d5 bd
       -0.2478068 0.1867355 0.03943943 -0.10447396
0002f0 33 9b 17 be 2c be c0 3e 2d fa 41 3e a5 c0 06 3e
       -0.14805298 0.3764509 0.1894309 0.13159426

net.0.bias f4 [64]
000000 39 c5 10 3f f4 ad b0 3d 31 ff 19 3f 51 fd 83 bd
       0.5655094 0.08626929 0.60155016 -0.06444801
000010 c2 2f 15 3f 4f 6f e2 3d 78 2b c7 be db 0f 85 be
       0.58276 0.11056387 -0.38900352 -0.2598866
000020 38 5c 09 bf 8a 13 7d 3e e9 c0 98 3e 3a 65 27 3f
       -0.5365634 0.24714485 0.2983468 0.65388834
000030 c4 f6 c3 be c6 8e b8 bd c1 dd 06 bf 8c 7a d7 3e
       -0.38274205 -0.09011607 -0.5268212 0.42085683
000040 e4 5d ce bd 58 6a ab be b1 55 d7 bd 18 d7 43 3e
       -0.10076502 -0.3347957 -0.10514391 0.1912502
000050 89 42 f9 3e d2 fa a9 be c7 14 f4 3a 22 bf d0 be
       0.48683575 -0.33199173 0.0018621915 -0.40770823
000060 69 96 21 3e ce a6 44 3e e7 13 a8 3e aa 2c b4 3e
       0.15780033 0.19204256 0.32827684 0.35190326
000070 b4 ce 49 3e bd 9f e1 3d e6 f2 08 bf 34 c9 16 bd
       0.19707757 0.11016796 -0.53495634 -0.036812976
000080 82 c7 ca be dd a7 82 3d df 69 d4 be ff 54 cd bb
       -0.39605337 0.06379674 -0.41487023 -0.006266236
000090 66 ad ff be ed 03 c7 3e e7 8d a4 be 2d 0f 9d be
       -0.4993698 0.38870183 -0.32139513 -0.3067564
0000a0 68 ff 0a 3f 42 58 13 3e 6a cb e1 be f0 00 b2 be
       0.5429597 0.14389136 -0.44100505 -0.3476634
0000b0 d4 5f a5 3d 65 97 15 bf 82 89 b9 3e db 6b ad 3e
       0.080749184 -0.58434135 0.36237723 0.3387135
0000c0 c1 7f ec be 10 29 1f 3d 88 78 01 3f 48 bb 9b be
       -0.46191218 0.03885752 0.5057454 -0.30416322
0000d0 5e c9 ff be 92 38 78 be 37 03 d9 be 50 2d 63 3e
       -0.49958318 -0.2424033 -0.42385265 0.22185254
0000e0 a6 21 7f be d4 24 f4 be 88 9c c6 be 25 12 e4 3e
       -0.2491518 -0.47684348 -0.387913 0.44545093
0000f0 9b f2 c9 be 6e 66 88 3e 40 e6 83 be 04 a1 95 be
       -0.39442906 0.26640648 -0.25761604 -0.29224408

net.2.weight f4 [64, 64]
000000 20 7c a7 3d 94 65 ca 3b 7d 4e f9 3d c8 15 1c 3d
       0.08177972 0.00617666 0.121731736 0.03810671
000010 70 9c b5 3d 56 9b 98 bd b6 d2 9b bd 6c c7 30 3d
       0.08867729 -0.07451503 -0.07608549 0.043158934
000020 47 80 23 be 7c e2 a4 3c 6e 1b 11 be cd 43 9e 3d
       -0.15966903 0.020127527 -0.1417062 0.07727776
000030 80 f7 83 bb 10 b7 ee 3c 04 ed a0 3c 44 b8 c7 3d
       -0.004027307 0.029140025 0.019644268 0.09751943
000040 6b 90 08 bd 18 da bc 3d 9e 21 d4 bd ae 44 a4 bd
       -0.033340853 0.092212856 -0.103579745 -0.08020912
000050 42 5b 48 bd 59 1c 2f 3d 44 b2 cb bd cc 40 d4 bd
       -0.048915155 0.042751644 -0.09946111 -0.103639215
000060 13 e0 9d 3d 65 62 bd bd aa b0 b3 bb eb c0 d9 bd
       0.077087544 -0.09247283 -0.0054837065 -0.10632499
000070 96 08 bd bd 83 72 4d 3d d5 b9 3a 3d 22 c2 5c 3d
       -0.09230153 0.050158035 0.04558738 0.053896077
000080 9c 61 48 bb 59 2c c9 bc 85 8d fd bc 61 c2 d4 ba
       -0.0030575758 -0.02455728 -0.03095127 -0.0016232246
000090 ab 3f cf bd ba 19 bb bd d6 61 7b bd 20 c7 82 3d
       -0.101195656 -0.09135766 -0.0613726 0.06385636
0000a0 4b 4c e6 3d ba cc a0 3c 80 8e d8 3a f8 33 09 3d
       0.112450205 0.019628871 0.001652196 0.033496827
0000b0 51 15 f8 3c 5b a4 c2 bb d8 9f cd 3d 2a 82 8f 3c
       0.030283602 -0.005940003 0.100402534 0.017518122
0000c0 30 38 c6 3d 0f 38 91 3c eb 10 cb bd 50 cc 66 3d
       0.09678686 0.017726926 -0.09915336 0.05634719
0000d0 7d a8 41 3d 9b 2f 45 bd d8 f3 03 be 69 b6 92 3d
       0.047279824 -0.048141103 -0.12885988 0.07163698
0000e0 84 bf 8f bd 48 60 a9 3d 82 01 b3 bd 70 39 3c 3c
       -0.070189506 0.08270317 -0.08740522 0.011488304
0000f0 09 c7 74 3d cb b8 c1 3b f0 27 56 3c bc 07 a3 3c
       0.059760127 0.0059119216 0.013071045 0.019901149
000100 cc e3 b4 bd 4e 83 e3 3d 50 49 83 bc c2 1d e3 3d
       -0.08832511 0.11109029 -0.016026169 0.1108966
000110 08 ab ab 3c 90 20 77 bc f8 06 e4 bc 4c c0 8f 3d
       0.020955577 -0.015083447 -0.027835354 0.070190996
000120 8c f7 a1 bd a0 07 6c bd 20 b4 e8 3b 8a cb d0 3d
       -0.07908544 -0.05762446 0.0071015507 0.10195072
000130 52 43 ec 3d 48 e6 a0 bd e6 64 fe bd 3a 30 db 3d
       0.11536278 -0.07856423 -0.124215886 0.10702558
000140 04 2a ca 3d a4 ba cb 3d 16 e1 e2 3d 50 bd 4f 3d
       0.09871295 0.09947708 0.11078088 0.05071765
000150 d4 2d fe 3d 18 0d 21 bd 30 b7 9e bd 9c 4c 5b 3d
       0.12411085 -0.039319128 -0.07749784 0.053539857
000160 7c 29 51 bd d6 c6 f1 bd 0c 41 5d 3d 40 4b 5c 3c
       -0.051064953 -0.11805503 0.05401711 0.013445675
000170 c2 ca fd bd 60 66 74 3c f0 70 23 bd 50 41 47 3c
       -0.123921886 0.014916986 -0.039902627 0.012161568
000180 30 08 aa 3c f0 71 d7 bd 96 5a 86 bd 48 c7 b5 3c
       0.020755857 -0.10519779 -0.06560247 0.022189751
000190 e8 3c 89 3c 2e 98 a0 3d 8a ca d6 bd 00 15 cd bc
       0.016752675 0.07841526 -0.1048785 -0.025034428
0001a0 0c 1e 7c 3d a0 d1 98 3c 28 e2 43 bd e0 11 ec 3c
       0.061552092 0.018654644 -0.0478231 0.028817117
0001b0 44 a0 b6 3d f2 dc 97 bd 5e d0 9b 3d d4 6a ea bd
       0.08917287 -0.07415189 0.07608102 -0.11446157
0001c0 00 d8 c0 3c 6c a8 2c bd 48 6d 71 bd 64 27 c5 bd
       0.023540497 -0.042152807 -0.05894211 -0.09626654
0001d0 f4 59 26 3d 30 65 cc 3d 3a 13 bb 3d 08 61 de bd
       0.04061313 0.099802375 0.091345266 -0.10858351
0001e0 b0 1a 8e bd d4 dd b2 3d 74 7f b8 3d d0 d0 e6 bd
       -0.06938684 0.087337166 0.09008685 -0.112702966
0001f0 74 6e f8 bd 84 b5 11 3d b8 d1 6f 3d f6 4f d4 bd
       -0.12130442 0.035573497 0.058549613 -0.10366814
000200 35 67 62 3d 12 91 19 3e 0c 58 c6 bd 2c ce 40 3d
       0.055274207 0.14996746 -0.09684762 0.04707162
000210 4d 74 b0 bd 81 b1 d0 3d fe 27 b7 bd 0e 2e 92 3d
       -0.086159326 0.10190106 -0.08943175 0.071376905
000220 c7 ae f4 bc 6b c4 a9 3d 16 2d e6 3c 38 ee 7b bb
       -0.029868497 0.08289417 0.02809767 -0.003844155
000230 04 cb ee bd 18 6c 88 bc 8c e3 89 bd 79 b9 8e bd
       -0.11659816 -0.016653106 -0.06732854 -0.0696897
000240 2e 64 11 3d a6 c0 83 bd 94 ae ad 3d a3 67 e4 3a
       0.03549593 -0.06433229 0.08480564 0.0017425906
000250 f8 a0 9d bc f6 16 6c 3d 1b 08 22 3d 7c 42 db bd
       -0.019241795 0.057639085 0.03955851 -0.1070604
000260 3c 8c 09 3e a4 35 81 bd 56 35 03 3e 78 ab 00 3d
       0.13432401 -0.06309059 0.12813315 0.031413525
000270 6b 95 e3 3d a2 de a6 3d 71 77 df 3c 9c d2 b3 3d
       0.111124836 0.081479326 0.027278634 0.08780405
000280 32 cd 10 3e ee 2f b7 3b 01 68 11 3e 07 cd 35 3d
       0.14140776 0.0055904305 0.1419983 0.044384982
000290 ee 27 11 bc 1f 29 87 3c 7c 95 8c 3b 8c a9 56 3d
       -0.008859618 0.0164991 0.004290281 0.052407786
0002a0 71 ba 4b bb c0 3b 73 bb b0 30 09 bd 94 e0 ed bd
       -0.003108647 -0.0037114471 -0.033493698 -0.116151005
0002b0 71 a6 be 3d 39 e6 02 3e 13 1c ea 3b f2 98 8f bd
       0.0930909 0.12783135 0.00714446 -0.07011594
0002c0 4c be 47 3d a7 a0 94 3d 32 87 5c 3d 0c 1c d5 bd
       0.048765466 0.072572045 0.05383987 -0.1040574
0002d0 e7 1c 0f 3e 38 38 62 3e 29 88 ec 3c 6a 75 91 3d
       0.13975869 0.22091758 0.02887352 0.07102473
0002e0 94 a4 04 3d f4 bb a3 bd 36 83 d3 3d cd 73 93 3d
       0.032383516 -0.079948336 0.10327761 0.071998216
0002f0 b0 1a 58 3c 81 e6 9d 3c 5c 58 6e 3d 90 8b a6 3d
       0.013189957 0.019274952 0.058189735 0.08132088
000300 3f 79 5d bb e4 37 78 bc e7 fb 9e 3d 0e 0d ac bd
       -0.0033794192 -0.015150044 0.0776289 -0.084009275
000310 c4 94 93 3d 37 3e 5a 3d 44 95 69 3d 2c 38 26 bd
       0.07206109 0.05328199 0.057027116 -0.040580913
000320 8c bf 2b be 70 39 26 3d 6e 82 bb bc 76 6c 37 bd
       -0.16772288 0.04058212 -0.022889342 -0.04478117
000330 e2 6c a1 3d 00 25 3c bb a3 64 b3 3c 47 44 af bd
       0.07882096 -0.0028708577 0.021898573 -0.08557945
000340 70 12 a2 bc 26 26 87 3d 80 3b 7a bb 5d 3c ca 3d
       -0.019784182 0.06599073 -0.0038182437 0.09874795
000350 6d 5e ac 39 fa 61 c4 3d 7b 35 74 bd 60 13 f5 bc
       0.0003287675 0.09589 -0.059621315 -0.029916465
000360 0e 3f ad 3d 14 60 cb bd a2 95 16 3d 91 7b d7 3d
       0.08459292 -0.09930435 0.036763795 0.10521615
000370 82 06 a8 bc 85 0b 5b bc 44 e1 c9 bd 46 0a e6 bd
       -0.020510916 -0.013369446 -0.09857419 -0.11232428
000380 f5 9d 56 b9 be d3 af 3d 45 d2 cd ba 63 bc a5 bc
       -0.00020467474 0.085853085 -0.0015702924 -0.020231431
000390 0b 23 bc bd 2d b8 64 3d 99 58 b0 3d 92 e6 b8 3d
       -0.091863714 0.055839706 0.08610649 0.09028353
0003a0 51 64 cc 3d 4e 53 53 3d ac 73 51 3d c8 7b c2 3d
       0.09980071 0.051593117 0.051135704 0.09496266
0003b0 73 f1 0e 3d 6d 1d a5 3d 02 d1 5f 3d 61 26 69 bd
       0.034898233 0.08062253 0.054642685 -0.056921367
0003c0 94 a4 b1 3d 07 58 d0 3d 00 66 07 be 36 68 8f bd
       0.08673969 0.1017304 -0.13222504 -0.070022985
0003d0 fc 32 1e bb 7b a9 99 bd 6c fe 0e bd 20 89 7d bd
       -0.0024139276 -0.07503029 -0.034910604 -0.06189835
0003e0 bc 5e 39 bd 9e 66 bc bd 10 71 62 bd 93 29 85 3c
       -0.04525636 -0.0919926 -0.055283606 0.016255176
0003f0 0a fb dd bc 4a f3 e6 bd 44 bd 7d bd be 8d d8 3c
       -0.027097244 -0.112768725 -0.061948076 0.026434775

net.2.bias f4 [64]
000000 d2 53 8d 3d 3a ef a4 bd 5d 7e e6 3d d8 9d dc 3d
       0.06900753 -0.08053441 0.11254571 0.10772294
000010 b6 25 df bd 3b 7a 3b 3d 15 20 37 3d 38 02 9f bd
       -0.10895865 0.045770865 0.04470833 -0.07764095
000020 b6 41 ac 3d 3c e5 a4 3c 52 06 63 bd 3d 3b ca 3d
       0.08410971 0.020128839 -0.05542595 0.0987458
000030 e0 c8 58 bd 5f fa b8 bc 7d 14 bc 3d 0a 66 c7 bd
       -0.052925944 -0.022580324 0.09183595 -0.09736259
000040 93 e8 c8 3d 53 7f f2 bd 40 a8 2f bd b7 01 a8 bd
       0.09809985 -0.118406914 -0.042885065 -0.08203452
000050 6f 44 2d 3d 36 00 bc bd 90 75 6a bc c3 77 e4 3d
       0.04230159 -0.09179728 -0.014310256 0.11155655
000060 5f bd 86 3d 6d c7 d7 bd f6 06 74 3d 32 d1 7f 3c
       0.065790884 -0.10536084 0.05957695 0.015613841
000070 97 09 fe 3c 5a 8e b8 bd a6 48 65 3d 7a 2c b8 bd
       0.031010432 -0.090115264 0.055977486 -0.08992858
000080 79 d1 d5 3c da 4d 40 3d 48 da d5 bc 98 55 08 3d
       0.02610086 0.046949245 -0.026105061 0.033284754
000090 32 8e f9 bd 7d ef 91 3d e1 52 de 3d ee 0b b4 3d
       -0.12185325 0.07125757 0.10855652 0.08791338
0000a0 88 95 e9 3d 14 4a 4b 3d 23 49 ea bc 0b d8 07 3c
       0.11405474 0.049631193 -0.028599327 0.008291255
0000b0 14 b4 05 3c c4 ff ba bd a8 e1 0a 3e 7f 09 0d 3e
       0.00816061 -0.09130815 0.13562644 0.13773154
0000c0 58 5d fd 3c 33 08 0d be e1 ce 14 3c d9 22 b3 3d
       0.030928299 -0.13772659 0.009082527 0.08746881
0000d0 ef 2c e3 3d 30 f8 80 bd 00 0a b7 bb 96 29 e6 3c
       0.11092555 -0.06297338 -0.005585909 0.028096002
0000e0 0f 9e 1f be e7 1e 8a 3d fe 38 06 be 16 c5 81 bd
       -0.15587638 0.067441754 -0.13107678 -0.06336419
0000f0 f0 e1 8f bd dc 62 86 3c b5 f6 89 bc 80 87 9b bd
       -0.07025516 0.016404562 -0.016841272 -0.07594204

net.4.weight f4 [1, 64]
000000 04 a5 09 be 20 73 a7 bb ce ee 16 3d fb 12 2d bd
       -0.13441855 -0.0051101595 0.036848836 -0.04225443
000010 20 09 ef 3b f2 4d 49 3d ad 83 5f 3d 84 4f 69 3d
       0.007294789 0.0491466 0.054568935 0.056960598
000020 e7 5d 1f 3e c5 45 06 be 60 9d f8 bd 3a 4d e4 3d
       0.15563165 -0.13112552 -0.12139392 0.11147542
000030 57 ca 0d be 66 f4 2c bd 26 48 1e 3d 51 05 9e 3d
       -0.13846718 -0.042225264 0.038643025 0.07715858
000040 bf 12 fa bc 65 af c9 bc 52 17 92 bd b4 62 b8 bd
       -0.030526517 -0.024619767 -0.07133354 -0.09003201
000050 ae 9d 88 bd 34 b8 3c bd fa 1a f8 3d 02 12 45 3d
       -0.066707 -0.046074107 0.1211452 0.048112877
000060 ce a4 e3 bd 8e 29 13 3e b7 2b 78 3d 0c ba eb bc
       -0.111154184 0.1437132 0.060588565 -0.028775238
000070 4e 88 b0 bd d8 e1 93 3c ae 6b 10 be ee 38 a0 bd
       -0.08619748 0.018052027 -0.14103577 -0.078233585
000080 12 59 3a bd de e4 aa bd 9e 2c f5 bd dd e4 40 bd
       -0.0454951 -0.08344434 -0.11971401 -0.04709326
000090 0a 2f ca bd 64 aa 10 3d 6b d7 aa 3d f7 4f 15 3e
       -0.09872253 0.035318747 0.08341869 0.14581285
0000a0 ce 4b 26 3e 50 31 e3 bd 98 f2 4e 3d 7b f9 8e 3d
       0.16239855 -0.1109339 0.050524324 0.069811784
0000b0 ea b2 0f 3e 1b 9d f4 3c 4f 66 73 bd 71 20 0e be
       0.14033094 0.02986007 -0.05942374 -0.13879563
0000c0 88 f8 b8 3c 32 43 08 be 57 62 f1 3d 60 2b fa 3d
       0.022579446 -0.13306883 0.11786335 0.122153044
0000d0 06 7a f9 3c 00 af e5 3a de f4 fa bd 5c 73 33 be
       0.030453693 0.0017523468 -0.12253736 -0.17524475
0000e0 f7 04 19 3e c2 15 6d bd 73 e3 1a bd 58 cc a7 bd
       0.149433 -0.057882078 -0.03781457 -0.08193272
0000f0 c6 c6 9e 3d 01 5c b1 bd 36 22 87 3d 61 31 15 3e
       0.07752757 -0.086601265 0.06598322 0.14569618
