cstr/data/trained_models/seed_5/td3_pso/models/best_model_actor.pth (torch, 21121 bytes, 5 tensors)

net.0.weight f4 [64, 3]
0	0xbec0d8e2	-0.37665468
1	0xbd91d8c9	-0.071214266
2	0x3eb12314	0.34597075
3	0xbf019a1b	-0.5062577
4	0xbf0e5321	-0.55595595
5	0x3daff2af	0.0859121
6	0xbe8036e1	-0.2504187
7	0x3eca7cf6	0.39548463
8	0x3f2129ff	0.62954706
9	0xbeddce0c	-0.43321264
10	0xbf01829d	-0.50589925
11	0xbd9ff5e7	-0.07810574
12	0x3ef844b5	0.4848992
13	0xbc77860c	-0.015107643
14	0x3d37bedc	0.044859752
15	0xbe3794e7	-0.17927895
16	0xbeb708f0	-0.35749006
17	0xbe7dcb61	-0.24784614
18	0x3eaf3566	0.34220427
19	0xbed87edc	-0.42284286
20	0x3f14a25d	0.58060247
21	0xbd26103c	-0.040542826
22	0xbd4b25e4	-0.049596682
23	0x3ee49fe6	0.44653243
24	0x3f137ba8	0.5761056
25	0xbe97dea7	-0.29662058
26	0xbe439724	-0.19100624
27	0x3e95011a	0.29102403
28	0xbdeea901	-0.11653329
29	0xbe9f9d8b	-0.31174883
30	0xbee1deb8	-0.44115233
31	0xbe76aeb1	-0.24090077
32	0x3da0ad56	0.07845561
33	0x3ebe73d7	0.37197754
34	0x3f06c8d5	0.52650195
35	0xbe11e287	-0.1424657
36	0xbe05abe3	-0.13053851
37	0xbe79a1b3	-0.2437809
38	0x3e8038b5	0.25043264
39	0xbe8b5eea	-0.2722085
40	0x3f0699c0	0.52578354
41	0xbf070f77	-0.5275797
42	0x3ec0540a	0.37564117
43	0xbd9a14ad	-0.07523475
44	0x3f17d331	0.5930663
45	0x3ee9bfe0	0.45654202
46	0x3f1ccc64	0.61249375
47	0xbde24454	-0.11048189
48	0xbecc0347	-0.3984625
49	0x3eac2920	0.33625126
50	0x3e075f12	0.1321986
51	0x3d21d188	0.039506465
52	0xbe94459b	-0.28959355
53	0x3f0388d6	0.5138067
54	0x3e02cd86	0.12773713
55	0xbd57eade	-0.05271422
56	0xbea76b9e	-0.32699293
57	0x3e617562	0.22017434
58	0xbeac85d2	-0.33695847
59	0x3e1293aa	0.14314142
60	0xbf05e545	-0.5230296
61	0xbe2f33ec	-0.1710965
62	0xbdf5827d	-0.11987779
63	0xbe0ae1e0	-0.13562727
64	0xbef7f2e6	-0.48427504
65	0xbee4f6c5	-0.4471952
66	0xbe17d4f7	-0.14827333
67	0x3d53d661	0.05171812
68	0x3ebc0115	0.36719576
69	0x3f1a910e	0.60377586
70	0x3de51734	0.11186066
71	0xbee68d3d	-0.4502963
72	0xbf0ad5a4	-0.5423224
73	0xbe6e99a2	-0.23300794
74	0xbea54350	-0.32277918
75	0x3e259451	0.1616986
76	0xbe83b121	-0.25721076
77	0xbed4ac58	-0.41537738
78	0xbee5e38b	-0.44900164
79	0x3e01e2be	0.12684152
80	0x3f00a654	0.50253797
81	0xbeab9596	-0.33512563
82	0xbf123325	-0.5710929
83	0x3f10af14	0.5651715
84	0xbead220e	-0.33815044
85	0x3eba39cc	0.3637222
86	0x3def33f2	0.1167983
87	0x3ec8f9ff	0.39253232
88	0xbe895703	-0.26824197
89	0x3eaef0f6	0.34168214
90	0x3e8a2d6b	0.26987776
91	0x3e82df4e	0.25560993
92	0xbef12648	-0.4709952
93	0x3e30a6a5	0.1725107
94	0x3ecab462	0.39590746
95	0xbee2dac1	-0.4430752
96	0x3e8cc500	0.2749405
97	0x3e51af5e	0.20477054
98	0xbca737c7	-0.020412339
99	0xbd86cb4c	-0.065817446
100	0x3e3c72a9	0.18403114
101	0xbf05f6f8	-0.5232997
102	0xbc4ba682	-0.012429835
103	0xbef376d8	-0.47551608
104	0xbe0b9920	-0.13632631
105	0xbe9cae3b	-0.30601677
106	0xbe903e00	-0.28172302
107	0x3ecff9ac	0.40620172
108	0x3ed2431b	0.41066822
109	0x3eed7e31	0.4638534
110	0x3ef994ca	0.4874633
111	0xbec45ed7	-0.38353607
112	0xbf07dd38	-0.5307193
113	0xbd526bce	-0.05137234
114	0xbec4edea	-0.38462764
115	0x3f113305	0.56718475
116	0x3eddb92d	0.4330534
117	0x3e29cb3f	0.16581438
118	0x3e512266	0.20423278
119	0xbe0274d0	-0.12739873
120	0xbcb43854	-0.021999516
121	0x3d8bc501	0.06824685
122	0x3df4451f	0.11927246
123	0x3e5497b4	0.20760995
124	0x3ecfe182	0.40601736
125	0xbeacd418	-0.33755565
126	0x3eb630c5	0.35584083
127	0x3e047ae1	0.129375
128	0xbed10278	-0.40822196
129	0x3eb2a577	0.34891865
130	0x3ec00f46	0.37511653
131	0x3f00fea1	0.5038853
132	0x3dad5aa2	0.084645525
133	0xbe382a28	-0.17984831
134	0xbe9ab649	-0.30217198
135	0x3efacca5	0.48984256
136	0xbef68527	-0.48148462
137	0xbe8c60f1	-0.2741771
138	0x3eee0ac6	0.46492594
139	0xbdd56070	-0.104187846
140	0x3ea062a4	0.31325257
141	0x3d90ccea	0.07070334
142	0xbe0967a1	-0.13418438
143	0x3d855fb8	0.065123975
144	0x3ea9ce1e	0.33165067
145	0xbd608d96	-0.054822527
146	0x3c9ff547	0.019526137
147	0xbd7dc189	-0.061952148
148	0xbf0c8ea4	-0.5490515
149	0x3e2e44c8	0.17018425
150	0xbe1fd748	-0.15609467
151	0xbee65655	-0.4498774
152	0x3ecfbcbe	0.40573686
153	0x3ea9b61f	0.3314676
154	0x3daf17f8	0.085494936
155	0xbe85afdd	-0.26110736
156	0xbdb9bee0	-0.0906961
157	0x3ea67004	0.32507336
158	0xbdc6b186	-0.09701829
159	0x3e5ef5ae	0.21773407
160	0xbe1cf88b	-0.15329187
161	0x3efd04c1	0.4941769
162	0xbed47f1e	-0.41503233
163	0x3dcdb84e	0.10044919
164	0xbf2acf89	-0.66722924
165	0x3f0aef87	0.5427174
166	0x3e376106	0.17908105
167	0x3ef1be90	0.472157
168	0x3e1cb585	0.15303619
169	0x3f17a2ff	0.5923309
170	0x3f012b70	0.50456905
171	0x3d8f7ac8	0.070058405
172	0x3eef207f	0.4670448
173	0x3dba4c0f	0.09096538
174	0xbed63986	-0.41840762
175	0x3ea017b1	0.31268075
176	0x3dcbfb78	0.09960073
177	0x3e90e146	0.2829687
178	0x3e107a73	0.1410921
179	0x3d4ec28c	0.050478503
180	0xbe8b19cf	-0.27168128
181	0x3e681b9d	0.22666784
182	0xbd92d4a9	-0.07169468
183	0x3e749134	0.23883516
184	0x3f2b662c	0.66952777
185	0x3f1a9d60	0.60396385
186	0x3d5f8b66	0.0545763
187	0xbd8e1cfe	-0.069391236
188	0xbd987b9c	-0.074454516
189	0x3eda2df2	0.42613178
190	0x3e601f7a	0.21887007
191	0x3d1c6dd0	0.038190663

net.0.bias f4 [64]
0	0x3f1688f0	0.588027
1	0x3dab9ab3	0.08379116
2	0x3f0751eb	0.5285937
3	0xbec50ce1	-0.38486388
4	0xbdd80c88	-0.10549265
5	0x3f1caf64	0.61205125
6	0x3f03a4bf	0.5142326
7	0x3e2bbad1	0.16770484
8	0xbe206680	-0.156641
9	0xbe75b626	-0.23995265
10	0x3dfa25c9	0.12214238
11	0x3e1aaefe	0.15105817
12	0xbeec7b2a	-0.46187717
13	0x3eaf2dad	0.34214535
14	0x3eb8d1ce	0.36097568
15	0x3ef36a6a	0.47542125
16	0xbc2869c6	-0.010279125
17	0xbf2069b2	-0.6266128
18	0xbd2d2a7a	-0.042276837
19	0xbc163324	-0.009167466
20	0xbe150f39	-0.14556588
21	0x3ef319c2	0.4748059
22	0xbe63cdad	-0.22246428
23	0xbd60d0b4	-0.054886535
24	0xbef1b27f	-0.47206494
25	0x3aa9c4b6	0.0012952301
26	0xbe33a8e0	-0.1754489
27	0xbeacdc62	-0.3376189
28	0x3ee46ac5	0.4461271
29	0x3e7e21de	0.24817607
30	0xbf098eb5	-0.5373338
31	0xbf0c772c	-0.5486934
32	0x3ed62e17	0.4183204
33	0x3e2c4d11	0.16826274
34	0x3e4ec0e9	0.20190777
35	0x3e805046	0.25061244
36	0x3ddacf48	0.10684067
37	0x3eb876bc	0.36028087
38	0x3e5f0369	0.21778645
39	0x3ede1241	0.43373302
40	0xbf015970	-0.50527096
41	0xbef068f3	-0.4695507
42	0xbe9c3009	-0.30505398
43	0x3ea5b68b	0.32365832
44	0x3d04372c	0.03227918
45	0x3f1203f7	0.570373
46	0x3ec7eeee	0.39049476
47	0x3e0f1f34	0.13976747
48	0x3e2f59d1	0.17124106
49	0x3ea0486f	0.31305262
50	0x3d93a960	0.0721004
51	0x3eb0dc54	0.34543097
52	0x3e866618	0.26249766
53	0xbf13f483	-0.5779497
54	0x3eb7b1d9	0.35877874
55	0x3ec3f312	0.38271385
56	0xbe29883c	-0.16555876
57	0x3e9fef27	0.31237146
58	0xbe861502	-0.26187903
59	0x3e4476bf	0.19185923
60	0xbf03196c	-0.51210666
61	0x3e131b2b	0.14365833
62	0xbda81319	-0.082067676
63	0x3ea102ba	0.31447393

net.2.weight f4 [64, 64]
0	0x3e5307c1	0.20608427
1	0xbb97a554	-0.004627863
2	0x3d3007e6	0.042976283
3	0x3d0a82f2	0.033816285
4	0xbd724b30	-0.059153736
5	0xbd9e4bc5	-0.07729296
6	0x3cb1d0b9	0.021705972
7	0xbde0ebd2	-0.10982479
8	0xbda70e2e	-0.081570014
9	0xbd51c3d3	-0.051212143
10	0xbdb26866	-0.08711319
11	0x3ca77279	0.020440327
12	0xbc620ea0	-0.013797432
13	0x3dcbfc93	0.09960284
14	0x3e32fb64	0.1747871
15	0x3d44f584	0.048085704
16	0xbd6e7fdc	-0.058227405
17	0x3d819ea7	0.06329089
18	0xbc0bba31	-0.008528278
19	0x3cafeda6	0.021475624
20	0xbc9466fa	-0.01811551
21	0xbd0526de	-0.03250777
22	0xbdaee9e2	-0.08540703
23	0x3c99035d	0.018678362
24	0xbd650785	-0.055915374
25	0xbdbea017	-0.093078785
26	0xbdd5747f	-0.104226105
27	0xbc80b824	-0.015712805
28	0x3d4d4c2e	0.05012148
29	0xbc92bdd5	-0.017912785
30	0x3e0635e6	0.13106498
31	0x3ccadd91	0.024763854
32	0xbde05966	-0.109545514
33	0x3d71360a	0.058889426
34	0xbdb791ab	-0.08963331
35	0x3dbe6922	0.09297396
36	0x3d3b14d5	0.045674164
37	0x3caf126f	0.021371095
38	0x3e1ed05b	0.15509169
39	0x3c9608b2	0.018314693
40	0x3d93cf63	0.0721729
41	0xbddad138	-0.106844366
42	0x3b332f00	0.0027341247
43	0xbb45c6cc	-0.0030178307
44	0xbd18e205	-0.037324924
45	0xbe0afda6	-0.13573322
46	0xbdd04b4c	-0.10170612
47	0x3d6563fa	0.05600355
48	0x3deaf640	0.1147275
49	0xbe0991a2	-0.13434461
50	0xbe55c5e7	-0.20876275
51	0xbd12e9fa	-0.03586767
52	0x3dc0a965	0.094073094
53	0x3bf34e7a	0.0074251266
54	0xbe0748d3	-0.13211374
55	0xbb985dbd	-0.0046498463
56	0x3d1d5c7a	0.03841827
57	0xbdaffef1	-0.08593548
58	0xbca8f302	-0.020623688
59	0x3daad1d6	0.08340804
60	0xbc15a5dc	-0.009133782
61	0xbd1ff014	-0.039047316
62	0xbd01a452	-0.03165085
63	0x3cbfbaa5	0.023404429
64	0x3ce29a0e	0.02766135
65	0xbe0918bc	-0.13388342
66	0x3d89f4e6	0.06736164
67	0x3ca976a6	0.020686459
68	0x3b484889	0.0030560812
69	0x3d948372	0.07251634
70	0xbe089785	-0.1333905
71	0x3e0442ba	0.12916079
72	0x3dcebea9	0.10094959
73	0xbe2b0b1f	-0.16703461
74	0xbda041c8	-0.07825047
75	0x3c711fee	0.014717085
76	0x3e09d568	0.13460314
77	0x3e18808c	0.14892787
78	0x3cb91047	0.02259077
79	0xbcca1a38	-0.024670705
80	0x3db2f6c7	0.08738475
81	0x3d9c3734	0.07627717
82	0x3e0290e4	0.12750584
83	0xbd240522	-0.040043958
84	0xbd8f5fe6	-0.07000713
85	0xbc3135f8	-0.01081609
86	0xbd871902	-0.06596567
87	0xbcaae161	-0.020859422
88	0xbbd4f3b4	-0.0064987782
89	0x3cca21ff	0.024674414
90	0x3c5d3b4f	0.01350291
91	0x3d71f8fd	0.059075344
92	0x3e00f481	0.12593271
93	0x3d25ca68	0.040476233
94	0x3c8942d9	0.016755508
95	0xbd343a9c	-0.044001207
96	0x3cadc791	0.021213325
97	0xbd7d5296	-0.06184634
98	0xbe25e258	-0.16199625
99	0xbd7bf4bd	-0.061512697
100	0x3e1ec1a6	0.15503559
101	0xbcb25b7c	-0.021772139
102	0xbdda1abc	-0.106496304
103	0xbd970f04	-0.07375911
104	0x3d7a1c22	0.061061986
105	0x3c8fb392	0.01754168
106	0xbdb6b20d	-0.08920679
107	0xbd992b94	-0.07479015
108	0x3cda2412	0.026628528
109	0xbcfdf43e	-0.031000253
110	0x3da84ba7	0.082175545
111	0xbd75df35	-0.06002732
112	0x3dfc1017	0.123077564
113	0xbdcdb3d5	-0.10044066
114	0xbcb22454	-0.021745838
115	0xbe19e9ca	-0.1503059
116	0x3d7a8304	0.061160102
117	0x3d46a17d	0.04849385
118	0x3dd7e0e7	0.105409436
119	0x3e335fe7	0.17517053
120	0x3cf7735f	0.03020638
121	0x3ba906e8	0.005158294
122	0xbc3df319	-0.0115936035
123	0x3c14e8e2	0.009088727
124	0xbd8f54e4	-0.069986135
125	0xbd2226be	-0.03958773
126	0xbc83fd37	-0.016111953
127	0x3cf300ea	0.029663522
128	0x3e098ee8	0.1343342
129	0xbcaa8ea2	-0.020819966
130	0x3deab685	0.11460594
131	0xbd120c02	-0.035655983
132	0x3dc31a14	0.095264584
133	0x3d79599e	0.06087648
134	0x3d2df3e4	0.04246892
135	0x3dbb3c9d	0.091424204
136	0xbde1d49b	-0.110268794
137	0xbc36e0c6	-0.011161989
138	0x3cc709aa	0.0242966
139	0x3cde22b4	0.027116157
140	0x3d8e45bb	0.06946894
141	0xbe561292	-0.20905522
142	0x3d073f45	0.033019323
143	0x3dfc680b	0.12324532
144	0xbd5fd9d4	-0.054651096
145	0x3e23ecc9	0.16008295
146	0xbe0a70e8	-0.13519633
147	0x3d466b36	0.048442088
148	0x3d96d68e	0.07365142
149	0x3d2b19d9	0.041772697
150	0xbdbf1e12	-0.09331907
151	0x3e1e8dca	0.15483776
152	0x3df4dd4a	0.1195627
153	0xbdf7cd7a	-0.120997384
154	0x3d88fe5f	0.066891424
155	0x3d94dcc6	0.07268672
156	0xbdfffa42	-0.12498905
157	0x3d135105	0.035965938
158	0xbdd173ae	-0.10227142
159	0x3d7bb3be	0.061450712
160	0xbcedfbbe	-0.029050704
161	0xbd89035e	-0.06690095
162	0xbd0790fd	-0.033097256
163	0xbd294ab9	-0.041331027
164	0x3dcf6f5d	0.10128663
165	0xbd3ec0ad	-0.04657047
166	0x3e1fa390	0.15589738
167	0x3dfbc7fc	0.12294003
168	0xbd31f6a6	-0.043448113
169	0xbe020690	-0.12697816
170	0x3da02920	0.07820344
171	0x3c6e6373	0.014550078
172	0x3d436362	0.0477022
173	0x3bd5adfe	0.0065209856
174	0xbe18c075	-0.14917167
175	0x3cc2bd7e	0.023771998
176	0xbdd7d2be	-0.10538243
177	0x3e2bf966	0.16794357
178	0x3dbab0bf	0.09115743
179	0x3e21c8b8	0.15799224
180	0xbd467b81	-0.048457626
181	0xbdbcb068	-0.09213334
182	0x3d934d31	0.071924575
183	0xbcaa7406	-0.020807277
184	0x3e2532f5	0.1613272
185	0xbd2ff627	-0.04295936
186	0x3c841f52	0.016128216
187	0xbca1097c	-0.019657843
188	0xbe2a19ca	-0.166114
189	0x3e0f6cd0	0.14006352
190	0x3dc86bd8	0.097861946
191	0xbcf4b41c	-0.02987104
192	0x3d892542	0.066965595
193	0x3dd97a17	0.1061899
194	0x3dbff746	0.093733355
195	0xbdf29cd4	-0.11846319
196	0xbdb2be27	-0.08727675
197	0x3d903688	0.07041651
198	0x3c81f852	0.015865479
199	0x3d9e25d2	0.077220574
200	0xba84dd70	-0.0010136794
201	0xbdfe3cac	-0.12413916
202	0xbba9b0a6	-0.005178529
203	0x3df674c7	0.12033992
204	0x3dcea1c6	0.100894496
205	0x3a9382bc	0.0011254172
206	0x3d999c9e	0.075005755
207	0xba6e97d8	-0.0009101606
208	0xbd2597a4	-0.04042782
209	0xbd3a1c3b	-0.04543708
210	0x3b889d54	0.0041691456
211	0x3e5cb8f2	0.21554926
212	0xbd59c85a	-0.053169586
213	0xbda32cd6	-0.07967536
214	0xbc71fc42	-0.014769616
215	0x3d765243	0.060137045
216	0xbd2a7c5f	-0.041622516
217	0xbdef0842	-0.11671497
218	0x3c05d490	0.008168355
219	0x3d67b606	0.056570075
220	0xbcd28f92	-0.025703225
221	0xbc8b81cd	-0.017029667
222	0xbe00f2c6	-0.1259261
223	0x3dd5d794	0.10441509
224	0x3ca01784	0.019542463
225	0x3dfc4b58	0.12319058
226	0x3e6f8b23	0.2339292
227	0x3da9fcc9	0.08300168
228	0xbd45f895	-0.04833277
229	0x3df44c19	0.11928577
230	0xbd811e00	-0.0630455
231	0x3c59aa1c	0.013285186
232	0xbd81e743	-0.06342938
233	0x3c94303d	0.018089408
234	0x3d35b15c	0.044358596
235	0x3d4d1b5c	0.05007492
236	0x3c8cf56a	0.017206866
237	0xbc3136c1	-0.010816277
238	0x3dd77153	0.10519662
239	0x3d9f83a4	0.0778878
240	0x3dde9c23	0.108696245
241	0x3d63533c	0.0554993
242	0x3e10c5ed	0.14138003
243	0x3daa430c	0.083135694
244	0xbd1187b6	-0.035529815
245	0xbd98e960	-0.07466388
246	0xbd0260aa	-0.031830467
247	0xbd8f51e9	-0.06998045
248	0xbd7b8be8	-0.061412722
249	0x3d800050	0.062500596
250	0x3e1b0a1f	0.1514058
251	0xbd493511	-0.049122874
252	0x3cddf237	0.027093036
253	0x3dcb7655	0.099346794
254	0xbd257261	-0.040392283
255	0xbc9dfda7	-0.01928599

net.2.bias f4 [64]
0	0x3d73b243	0.059496175
1	0xbd796934	-0.060891345
2	0xbc960409	-0.018312471
3	0x3cb29412	0.021799121
4	0x3da68bfa	0.08132167
5	0xbe269cdc	-0.16270775
6	0xbc59479d	-0.013261703
7	0x3dac5007	0.084137015
8	0xbdb9e998	-0.090777576
9	0xbdbbb300	-0.09165001
10	0xbdf659e6	-0.120288655
11	0x3d70db9e	0.058803193
12	0xbb27ed8a	-0.0025623762
13	0xbdecce17	-0.11562746
14	0x3d6224b7	0.055210795
15	0x3e01108e	0.12603971
16	0xbc695809	-0.014242181
17	0xbd9979b6	-0.07493918
18	0xbdbf3cf6	-0.09337799
19	0x3dddc027	0.10827666
20	0xbd76f6d4	-0.060293987
21	0x3e102538	0.14076698
22	0xbd0e3c2f	-0.034725364
23	0xbdbce8ea	-0.09224112
24	0xbe08022c	-0.13282079
25	0x3a056dc0	0.00050899014
26	0x3ba3fb2a	0.0050043063
27	0xbe1efa98	-0.15525281
28	0x3d589e92	0.0528856
29	0x3cae7341	0.021295192
30	0xbcdaf7a2	-0.026729409
31	0x3dcff671	0.10154427
32	0x3c5ab3c4	0.0133485235
33	0xbdb3b13b	-0.087740384
34	0xbdb0b94d	-0.08629093
35	0x3c8b2c38	0.016988859
36	0x3dcaf330	0.099096656
37	0xbd3869bc	-0.04502271
38	0xbd6475b7	-0.055776324
39	0x3db5a0e4	0.08868578
40	0xbc29aad2	-0.010355668
41	0xbc85efc2	-0.016349677
42	0xbd4610b2	-0.048355766
43	0x3c0914fd	0.00836682
44	0xbd30add5	-0.04313453
45	0xbd102c32	-0.035198398
46	0x3d23f950	0.040032685
47	0x3d8d98ce	0.06913911
48	0x3d37f5c9	0.044912133
49	0x3df0de61	0.117611654
50	0x3d3b8388	0.045779735
51	0x3dbe8406	0.09302525
52	0x3d395de4	0.045255557
53	0xbd351fb6	-0.044219695
54	0xbdbd212a	-0.09234841
55	0xbcfa5f39	-0.030562984
56	0x3c3ba1e6	0.011452174
57	0xbcb7f5c3	-0.022456056
58	0x3e06766a	0.13131109
59	0xbd99a627	-0.07502394
60	0x3e196212	0.14978817
61	0x3ca52478	0.020158991
62	0x3b5d0d08	0.003372969
63	0xbbed649c	-0.0072446596

net.4.weight f4 [1, 64]
0	0xbe3a763a	-0.18209162
1	0xbc998f48	-0.01874508
2	0xbdfdd7b4	-0.12394658
3	0xbd7afc2a	-0.06127564
4	0x3d943268	0.07236177
5	0xbd3f32c2	-0.046679266
6	0x3b1c2f95	0.0023832072
7	0x3d9ac949	0.07557923
8	0x3e00ad4e	0.1256611
9	0x3dd8ba26	0.1058238
10	0x3daacbce	0.08339654
11	0x3d9d452e	0.076792106
12	0xbd57d3e0	-0.052692294
13	0x3d30ef7d	0.043197144
14	0x3cbdf5b5	0.023188451
15	0x3e11f71c	0.14254421
16	0x3e5467ea	0.20742765
17	0xbb48fac0	-0.0030667037
18	0x3cd9d99c	0.026593022
19	0xbca14cc0	-0.019689918
20	0x3d69f3c6	0.057117246
21	0xbdc6bec3	-0.09704354
22	0x3db36ae8	0.08760625
23	0x3d4951f1	0.04915041
24	0xbdcfcc83	-0.101464294
25	0x3de1c8a6	0.11024599
26	0xbcb16cd5	-0.02165834
27	0xbad9c0a8	-0.0016613202
28	0xbda26ded	-0.07931123
29	0xbd7a7829	-0.06114975
30	0x3bb72560	0.0055891722
31	0xbdc877dd	-0.09788487
32	0xbd04331e	-0.03227531
33	0xbddcb279	-0.107762285
34	0x3da5b9cd	0.08092079
35	0x3d7af01e	0.06126415
36	0xbd6fb1d2	-0.058519192
37	0xbb5326f0	-0.0032219253
38	0x3e1045f3	0.14089184
39	0xbd7f3727	-0.062308457
40	0x3d86d2b3	0.065831564
41	0xbdfa7b2a	-0.12230523
42	0x3d22eb37	0.0397751
43	0x3b15ef80	0.0022878349
44	0x3d988035	0.074463286
45	0xbd0c2303	-0.034213077
46	0x3e0ea01e	0.13928267
47	0xbd4eb266	-0.050463103
48	0x3d9d93ea	0.07694228
49	0x3dda66dd	0.10664151
50	0x3e19b5ca	0.15010753
51	0x3de28bda	0.11061831
52	0xbd142231	-0.03616542
53	0xbb1a0dc4	-0.002350674
54	0xbe351744	-0.17684656
55	0x3cdd50e0	0.027016103
56	0x3d40fa9c	0.047114
57	0xbdda8030	-0.10668981
58	0xbd5d3140	-0.054002047
59	0x3dd5412d	0.10412822
60	0x3d9bfbc4	0.0761638
61	0xbda04225	-0.07825116
62	0x3dc700d6	0.09716956
63	0x3e0a5e1a	0.1351246
