cstr/data/trained_models/seed_1/td3/models/best_model_actor.pth (torch, 21121 bytes, 5 tensors)

net.0.weight f4 [64, 3]
0	0x3e9ec68c	0.31010854
1	0xbe7f4b2b	-0.24931018
2	0xbc23f20f	-0.010006442
3	0x3e8bc680	0.2729988
4	0xbf15bbfb	-0.5848996
5	0x3ea16add	0.31526843
6	0xbd85d433	-0.065346144
7	0x3ea32d09	0.31870297
8	0x3df68e1c	0.12038824
9	0xbd90c794	-0.070693165
10	0x3e23fa45	0.16013439
11	0x3ce9527e	0.028481718
12	0x3e81519b	0.25257573
13	0xbe5bbb7e	-0.21458241
14	0x3d2161fb	0.039400082
15	0xbd87a8bf	-0.06623983
16	0x3e1935bc	0.14961904
17	0xbe436dbf	-0.19084834
18	0x3f07b541	0.53010947
19	0x3e03b85d	0.12863298
20	0xbe9e4f53	-0.30919895
21	0xbeb28872	-0.34869725
22	0xbdc630e4	-0.09677294
23	0xbe7f02f1	-0.24903466
24	0xbe2aa9fa	-0.16666403
25	0x3db9c838	0.09071392
26	0x3e8fd9d9	0.28095892
27	0x3ea66d97	0.32505485
28	0xbf0cac78	-0.54950666
29	0x3e781d30	0.24229884
30	0x3e4d1215	0.20026429
31	0x3eff52ec	0.49867952
32	0x3e9f9c51	0.31173947
33	0xbf06aaec	-0.52604556
34	0xbf0c87f4	-0.5489495
35	0xbe8e9438	-0.27847457
36	0x3f0b0af4	0.5431359
37	0xbde7a4b8	-0.113107145
38	0x3e96fd00	0.294899
39	0xbe28da30	-0.16489482
40	0x3f1418d3	0.5785038
41	0xbe50007c	-0.20312685
42	0x3ee29c9c	0.44260108
43	0x3cf9b035	0.03047953
44	0xbe2949d0	-0.16532063
45	0x3eb51f8d	0.35375634
46	0xbeb67036	-0.35632485
47	0x3e51e9f8	0.20499408
48	0xbcf8cfa8	-0.030372456
49	0xbe495b9e	-0.19663855
50	0xbf16a4d5	-0.58845264
51	0xbe0dbe57	-0.1384214
52	0x3eb08d81	0.3448296
53	0xbe13bf06	-0.14428338
54	0x3f1183f1	0.5684195
55	0x3f05eea5	0.5231727
56	0x3d64e11c	0.055878744
57	0xbe9b2e15	-0.30308595
58	0x3eac7502	0.3368302
59	0x3e0eb220	0.13935137
60	0xbebf1576	-0.3732106
61	0x3ec001ef	0.37501475
62	0x3eb37619	0.3505104
63	0x3f07d110	0.5305338
64	0xbec5791f	-0.3856897
65	0xbe2258eb	-0.15854232
66	0x3d552fcb	0.052047532
67	0x3c1de57f	0.009637236
68	0xbef96807	-0.4871218
69	0xbe9ae202	-0.30250555
70	0x3e613e1d	0.2199635
71	0xbe0bfde1	-0.13671066
72	0x3e9ddfa9	0.30834702
73	0xbd0a1c04	-0.033718124
74	0x3dc2fb41	0.09520579
75	0x3e1497a8	0.14510977
76	0x3e91f102	0.28504187
77	0x3f010a99	0.50406796
78	0xbf077dae	-0.52926147
79	0x3e920c80	0.28525162
80	0xbed174f2	-0.40909535
81	0xbec87fea	-0.3916009
82	0x3e35a2bd	0.17737861
83	0xbdd96b20	-0.106161356
84	0x3e9d3e45	0.3071157
85	0xbe7d1969	-0.24716724
86	0xbef381b9	-0.47559908
87	0x3eda56b8	0.42644286
88	0xbe15e46c	-0.14637917
89	0x3ece7013	0.4031988
90	0x3e6ef100	0.23334122
91	0xbec5ce96	-0.38634175
92	0x3db7a0db	0.089662276
93	0x3e4b7534	0.19868928
94	0xbeb5089f	-0.3535814
95	0xbe9712d8	-0.29506564
96	0x3e8b3409	0.27188137
97	0x3d56b884	0.05242206
98	0xbebdb30b	-0.3705066
99	0xbe32f7b8	-0.1747731
100	0x3f075e76	0.5287851
101	0xbddac589	-0.10682208
102	0x3ea7e4fc	0.3279189
103	0x3e9ca856	0.3059718
104	0xbec677df	-0.3876333
105	0xbee65eaa	-0.44994098
106	0x3f013ebd	0.50486356
107	0x3dac3d7a	0.08410163
108	0x3ed94465	0.42434993
109	0x3d7aa5ea	0.061193384
110	0x3d9f94b1	0.077920325
111	0x3f0f424b	0.5596053
112	0x3f019972	0.50624764
113	0xbef9d3f0	-0.48794508
114	0x3d7eecfc	0.062237725
115	0x3f00ef28	0.50364923
116	0x3eecd988	0.46259713
117	0x3ed1d281	0.40980914
118	0xbef7db78	-0.4840963
119	0xbee1c8e7	-0.4409859
120	0xbe822d11	-0.25425008
121	0x3e1f3c05	0.1555024
122	0x3f1d757e	0.61507404
123	0xbeb54792	-0.35406166
124	0x3ea39f1f	0.31957337
125	0xbeb47254	-0.35243475
126	0xbf0af728	-0.5428338
127	0xbdfb4f4b	-0.12270983
128	0x3eaa516b	0.33265242
129	0x3f0dffbd	0.5546835
130	0xbed571b9	-0.41688326
131	0x3d489a63	0.04897536
132	0x3f05f425	0.5232566
133	0x3eb3a03a	0.3508318
134	0x3ea110f0	0.31458235
135	0x3ef32034	0.47485507
136	0x3eafb795	0.3431975
137	0x3e55d12f	0.20880578
138	0xbe9837d2	-0.29730088
139	0xbf10967c	-0.5647962
140	0xbe9a6d8b	-0.301617
141	0xbd89afeb	-0.06723007
142	0xbeb530d3	-0.35388812
143	0x3e584b8d	0.2112257
144	0x3e61329a	0.21991959
145	0xbe11fa14	-0.14255553
146	0x3db7388b	0.089463316
147	0x3e37e7e8	0.17959559
148	0x3eab32b2	0.33437115
149	0x3e9b0e2c	0.3028425
150	0xbe0f2c73	-0.139818
151	0x3f32e3a3	0.69878596
152	0xbd395bfc	-0.04525374
153	0xbd046df4	-0.032331422
154	0xbf2cb45d	-0.6746271
155	0xbec38ae4	-0.38191903
156	0xbeacb147	-0.33729002
157	0xbe7cdf66	-0.24694595
158	0x3ed22a3c	0.41047847
159	0xbdda4e10	-0.106594205
160	0xbeeabaae	-0.4584555
161	0x3e4ac56d	0.19801874
162	0x3e6940da	0.22778645
163	0x3e9d7d8f	0.30759856
164	0xbefff59f	-0.49992082
165	0x3e43f560	0.19136572
166	0xbe700aff	-0.23441695
167	0xbe800ef0	-0.25011396
168	0xbeeb925d	-0.46010104
169	0xbe86b976	-0.2631337
170	0xbe350fc6	-0.17681798
171	0x3e78d194	0.24298698
172	0x3e2ba311	0.16761424
173	0x3e4a7d14	0.19774276
174	0x3f203073	0.6257393
175	0x3f05edc5	0.5231593
176	0x3ecfc727	0.4058163
177	0x3da68164	0.08130148
178	0xbeeea1e5	-0.4660789
179	0x3ecd49a3	0.40095243
180	0xbe09d448	-0.13459885
181	0xbd7f3818	-0.062309355
182	0xbef83dfd	-0.48484793
183	0xbcf96122	-0.030441824
184	0xbeda299a	-0.42609864
185	0x3edf73fe	0.43643183
186	0xbec00c90	-0.37509584
187	0xbee4aacf	-0.44661567
188	0xbd81e89f	-0.06343197
189	0xbe9fd659	-0.31218222
190	0x3e538a68	0.20658267
191	0xbe639212	-0.2222369

net.0.bias f4 [64]
0	0xbe92f8a6	-0.2870533
1	0xbc3b00ba	-0.011413747
2	0x3efac226	0.48976249
3	0xbecfef35	-0.40612188
4	0x3e8d4a7f	0.27595899
5	0x3ecd7369	0.40127113
6	0x3f15c5fa	0.58505213
7	0xbecee6e3	-0.40410528
8	0x3e28109f	0.1641259
9	0xbeef6c52	-0.4676233
10	0x3f04cecc	0.51878047
11	0xbe655532	-0.2239578
12	0x3ebee42b	0.37283453
13	0x3dca963c	0.09891936
14	0xbd0dd0e0	-0.034623027
15	0xbbdcbcd2	-0.0067363763
16	0x3e600543	0.21877007
17	0x3ecdd080	0.40198135
18	0x3dab4b08	0.083639205
19	0x3e7edf6c	0.24889916
20	0xbf04f385	-0.5193408
21	0x3edeb1d5	0.4349505
22	0x3f10785a	0.5643364
23	0x3f163793	0.5867855
24	0x3ee6507c	0.4498328
25	0xbed7b897	-0.42133018
26	0xbe60a6a9	-0.21938576
27	0x3f0da625	0.5533164
28	0xbf09a64f	-0.5376939
29	0x3f01a495	0.5064176
30	0xbf02c4c8	-0.51081514
31	0xbee36820	-0.4441538
32	0x3ea4cbe2	0.321868
33	0xbed46344	-0.41481984
34	0xbdf7967d	-0.1208925
35	0x3eee156d	0.46500722
36	0x3eed6ebb	0.46373543
37	0x3f1de3fc	0.61676
38	0xbded695b	-0.115923606
39	0xbee70bc0	-0.45126152
40	0x3f2f6935	0.6851991
41	0xbde17e74	-0.11010447
42	0xbe733e42	-0.23754218
43	0x3e17484d	0.14773674
44	0xbeb5b10c	-0.3548664
45	0x3ed64e5b	0.41856655
46	0x3eea1d00	0.4572525
47	0xbeea8e42	-0.4581166
48	0xbf061965	-0.523825
49	0xbd954fd5	-0.072906174
50	0x3e8a2c62	0.26986986
51	0xbdc56786	-0.09638886
52	0xbe95e4d1	-0.29276136
53	0x3d9a9da8	0.07549602
54	0xbf118683	-0.56845874
55	0xbee241bb	-0.44190773
56	0xbec4c7ad	-0.3843359
57	0x3ef4b90d	0.47797433
58	0x3f073588	0.5281606
59	0xbe569aea	-0.20957533
60	0x3d956845	0.072952785
61	0x3ea050b7	0.3131158
62	0x3e176bf2	0.14787272
63	0xbe94062d	-0.28910962

net.2.weight f4 [64, 64]
0	0x3d989ba3	0.0745156
1	0x3d76f554	0.060292557
2	0x3ca988d8	0.020695135
3	0xbc7c1d30	-0.015387818
4	0x3def7d6d	0.11693845
5	0x3e037d08	0.12840664
6	0xbd72cfd0	-0.059280217
7	0x3dfa779c	0.12229845
8	0xbc3d87d1	-0.011568026
9	0xbde73175	-0.1128873
10	0x3daf51c3	0.08560517
11	0xbdbf1f82	-0.093321815
12	0x3dfe4ce5	0.1241701
13	0xbdbe3037	-0.0928654
14	0x3d5c8015	0.053833086
15	0x3d1c9164	0.038224593
16	0xbc294613	-0.010331648
17	0x3ce8d02d	0.028419578
18	0xbd033ed9	-0.032042358
19	0xbdbdc861	-0.09266735
20	0xbdddd7a0	-0.10832143
21	0x3a54c7f8	0.0008116956
22	0xbd62e985	-0.055398483
23	0xbd3a4406	-0.04547503
24	0xbc913f11	-0.017730268
25	0xbe1d3a90	-0.15354371
26	0x3ddd75a4	0.10813454
27	0xbb24b1fe	-0.0025130506
28	0xbda26ee8	-0.0793131
29	0xbd614f66	-0.05500736
30	0xbed76997	-0.42072746
31	0xbe323a7a	-0.1740512
32	0xbc43cc59	-0.011950576
33	0x3cceb318	0.025231883
34	0x3ceaca0a	0.028660793
35	0xbdcbd4b8	-0.09952682
36	0x3da56572	0.0807599
37	0x3db08976	0.086199686
38	0x3d1f186c	0.03884165
39	0xbdb133e3	-0.08652475
40	0xbdec3b64	-0.11534765
41	0x3b47ae12	0.0030468744
42	0xbd924328	-0.07141715
43	0xbd818b6c	-0.06325421
44	0x3c23cdb7	0.009997777
45	0xbcaffb0d	-0.021482015
46	0xbd338f08	-0.043837577
47	0xbd0693b0	-0.03285569
48	0xbe858540	-0.26078224
49	0xbcacf595	-0.021113196
50	0xbe146374	-0.14491063
51	0x3d45ad34	0.048260882
52	0x3cc35c70	0.023847789
53	0x3d24ad22	0.040204175
54	0xbe2e0137	-0.16992651
55	0xbec1394f	-0.37739035
56	0xbdf0aacc	-0.11751327
57	0xbd1a52f5	-0.03767677
58	0x3dc62013	0.096740864
59	0xbeb293a5	-0.3487827
60	0xbe1f9cfd	-0.1558723
61	0x3cf80081	0.030273678
62	0xbdeb9295	-0.11502568
63	0x3d3d0db8	0.04615566
64	0xbd1f9923	-0.038964402
65	0xbcd32221	-0.02577311
66	0xbb2318e1	-0.0024886655
67	0xbd3cbe70	-0.046080053
68	0x3d23b74f	0.03996974
69	0xbcca9f1d	-0.024734074
70	0xbd9fa501	-0.07795144
71	0x3ce84e18	0.02835755
72	0xbdf40623	-0.11915233
73	0xbd66eac6	-0.05637624
74	0x3d83fd81	0.064448364
75	0x3d3f5978	0.046716183
76	0x3dc73b09	0.09728057
77	0xbddd067d	-0.10792253
78	0xbbfa1b66	-0.0076326607
79	0xbd492aba	-0.049113013
80	0xbe17a456	-0.14808783
81	0xbe240297	-0.16016613
82	0x3cdb9689	0.02680518
83	0xbd0365d4	-0.032079533
84	0xbd82acc0	-0.06380606
85	0xbdcbbc2a	-0.09947999
86	0xbde64f90	-0.11245644
87	0x3db6b815	0.089218296
88	0xbcf4bd13	-0.029875314
89	0xbd8b615a	-0.06805678
90	0xbd3c4588	-0.045964748
91	0xbd71572a	-0.058921017
92	0xbe0b5d9b	-0.13609926
93	0xbda982e4	-0.082769185
94	0xbde9414e	-0.11389409
95	0xbe4633aa	-0.19355646
96	0xbd53d643	-0.051718008
97	0xbd417dbc	-0.04723905
98	0x3d96a60a	0.07355888
99	0x3da5bae3	0.080922864
100	0x3de6d665	0.11271361
101	0x3d048e89	0.032362495
102	0x3d9eef59	0.07760496
103	0xbd01f322	-0.03172601
104	0xbe0ef5c5	-0.13960941
105	0xbdfacc6c	-0.12246022
106	0x3d9bed9a	0.07613678
107	0xbcf3b6fb	-0.029750338
108	0x3d3e72f9	0.046496365
109	0x3abb24f3	0.001427798
110	0xbdccde08	-0.100032866
111	0xbd7b2f40	-0.061324358
112	0xbd888be2	-0.066673055
113	0xbcc9ca1e	-0.02463251
114	0xbdf0f202	-0.11764909
115	0xbdf84619	-0.12122745
116	0x3b9d16c0	0.004793972
117	0xbc9b9305	-0.018991003
118	0x3c8c91b8	0.017159328
119	0xbe4f51f7	-0.20246111
120	0xbd3cd3c0	-0.046100378
121	0x3dd936d5	0.106061615
122	0x3d6d7c1b	0.057979684
123	0xbe201f26	-0.15636882
124	0xbc7fbc6f	-0.015608891
125	0xbe041259	-0.12897624
126	0x3dc5a6de	0.09650968
127	0xbd041dd8	-0.032255024
128	0xbd9f6cda	-0.07784434
129	0x3d6080d1	0.05481035
130	0x3da10e2a	0.0786403
131	0x3cfd6870	0.030933589
132	0xbcfd5c05	-0.030927667
133	0xbcc4e406	-0.024034511
134	0x3cae25d0	0.021258265
135	0x3dc61af8	0.09673113
136	0x3cdf5cc9	0.027265923
137	0xbd826196	-0.06366269
138	0x3e01b2db	0.12665884
139	0x3b2f3400	0.0026733875
140	0x3dc2bcbe	0.09508656
141	0x3d38b641	0.045095686
142	0x3deb75d9	0.11497087
143	0x3d828df4	0.06374732
144	0xbd845522	-0.0646155
145	0x3da1821a	0.07886143
146	0x3b8e8e06	0.0043504266
147	0xbda2a848	-0.07942253
148	0xbcd69338	-0.026193246
149	0xbdf035d9	-0.117290206
150	0xbd86d4c5	-0.06583551
151	0xbdb40847	-0.08790641
152	0x3da8b876	0.08238308
153	0xbc881a08	-0.016613975
154	0xbc89373d	-0.016749972
155	0x3d8d74a3	0.06907012
156	0x3d5ccfb7	0.05390903
157	0xbdb32ca1	-0.08748747
158	0xbdd6e1d6	-0.104922935
159	0xbe00d00a	-0.1257936
160	0xbdc9ec68	-0.09859544
161	0x3dde936c	0.10867962
162	0xbd80d3bd	-0.06290386
163	0xbcd05c9a	-0.02543478
164	0xbdd631ba	-0.10458703
165	0x3df08350	0.11743796
166	0x3cda2d47	0.026632918
167	0x3dabceb4	0.08389035
168	0x3bf34969	0.0074245227
169	0x3d96262f	0.07331502
170	0xbd237964	-0.03991069
171	0xbdd797d2	-0.10527004
172	0x3d3cf534	0.04613228
173	0xbc295710	-0.010335699
174	0xba450a09	-0.0007516449
175	0xbd7b7368	-0.061389357
176	0xbd83f145	-0.06442503
177	0x3d30e102	0.043183334
178	0x3d6a555c	0.05721031
179	0xbdd71db4	-0.10503712
180	0x3d775b88	0.060390025
181	0x3d46d660	0.048544288
182	0x3de9a971	0.114092715
183	0xbdcbbfd7	-0.099487
184	0xbdc99a90	-0.098439336
185	0x3df1a609	0.11799247
186	0xbdfa5d73	-0.12224855
187	0x3c74321f	0.014904528
188	0x3ca944f5	0.020662764
189	0x3d6dfba6	0.05810132
190	0xbd8f5609	-0.06998832
191	0x3d99e802	0.07514955
192	0xbca5bf22	-0.02023274
193	0xbd6d92d5	-0.058001358
194	0x3cf2f3ed	0.029657329
195	0x3d8c1fc0	0.06841993
196	0x3e1b22fe	0.15150067
197	0xbc64157e	-0.01392114
198	0x3e0cae1c	0.13738292
199	0x3da476ce	0.08030473
200	0xbd8c6959	-0.06856031
201	0xbc0b33f6	-0.008496275
202	0x3d9921be	0.07477139
203	0xbd8c4198	-0.068484485
204	0x3da3983f	0.07988023
205	0xbdf7f2c3	-0.1210685
206	0x3de38cbd	0.11110828
207	0x3d92347b	0.07138916
208	0x3cbd07a6	0.023074936
209	0x3dfbb91c	0.12291166
210	0xbd9cbe71	-0.07653511
211	0xbd38e235	-0.045137603
212	0x3aa09e80	0.0012254268
213	0xbd3c5118	-0.045975775
214	0xbc1ef61d	-0.009702233
215	0xbcdf637a	-0.027269114
216	0x3e0e597a	0.1390132
217	0x3e9c5c4b	0.30539164
218	0x3dd2de2c	0.10296282
219	0x3dd59e0b	0.10430535
220	0xbcfd31b5	-0.030907491
221	0x3d83f7b6	0.064437315
222	0x3ed2a001	0.41137698
223	0x3e839b19	0.25704268
224	0x3d8a0dcf	0.06740915
225	0xbd8ae8ee	-0.06782709
226	0x3ce8255c	0.028338127
227	0x3ccc35d5	0.024928013
228	0x3e0116e3	0.12606387
229	0xbd60e1a3	-0.054902684
230	0xbdfe8a1d	-0.12428687
231	0x3e38e5b0	0.18056369
232	0x3dd7947a	0.105263665
233	0x3d6276b8	0.055289
234	0x3d384d48	0.044995576
235	0xbc705cff	-0.0146706095
236	0x3d903f4f	0.07043325
237	0xbdc5296e	-0.09627043
238	0x3cc0a225	0.023514817
239	0x3d6771c0	0.056504965
240	0x3ebcc615	0.36869875
241	0xbd784dbe	-0.060621016
242	0xbd84f233	-0.06491508
243	0x3e32fdec	0.17479676
244	0xbdcb4e58	-0.09927052
245	0xbe137abe	-0.14402291
246	0x3d637c0d	0.055538226
247	0x3eaf70f0	0.34265852
248	0xbcc37578	-0.023859724
249	0xbd6e6735	-0.058203895
250	0xbd23e3a6	-0.040012024
251	0x3e43e8b9	0.19131745
252	0x3d847621	0.06467844
253	0x3cc07565	0.023493478
254	0xbd97c3a1	-0.0741036
255	0x3d054d40	0.032544374

net.2.bias f4 [64]
0	0x3d94e5d4	0.07270399
1	0xbc270b8a	-0.010195622
2	0x3d1405d5	0.036138374
3	0xbc5aa6a1	-0.0133453915
4	0xbdb3736e	-0.08762251
5	0x3dd13be9	0.10216505
6	0xbcac4008	-0.021026626
7	0x3db65317	0.08902567
8	0xbd0c213c	-0.034211382
9	0xbcd8cb08	-0.026464
10	0x3c874f10	0.016517192
11	0xbd2ca550	-0.04214984
12	0x3d80efd4	0.062957436
13	0x3d3fbc69	0.04681054
14	0xbd2892de	-0.04115569
15	0xbda4a64a	-0.080395296
16	0x3db51236	0.08841364
17	0x3bc083ac	0.0058750715
18	0x3d022f26	0.031783246
19	0xbd7fd9ec	-0.062463686
20	0x3da8b59d	0.08237765
21	0x3df09106	0.11746411
22	0x3d38ab33	0.045085143
23	0x3e05a81e	0.13052413
24	0x3d96edb9	0.07369561
25	0x3e152b7e	0.14567372
26	0xbd81b516	-0.063333675
27	0xbd39922c	-0.045305416
28	0xbca84928	-0.020542696
29	0xbd557365	-0.052112002
30	0x3da23d28	0.07921821
31	0xbd65ef77	-0.056136575
32	0x3d389c83	0.045071136
33	0x3d83e510	0.064401746
34	0xbcbd90d8	-0.023140356
35	0x3de8f2d6	0.11374442
36	0xbd704228	-0.05865684
37	0x3d883168	0.066500485
38	0x3dc590fa	0.09646793
39	0xbd83b72b	-0.06431421
40	0xbacfa400	-0.0015841722
41	0x3dbbee13	0.091762684
42	0xbdcbaaee	-0.099447116
43	0xbd849926	-0.06474523
44	0xbde3f695	-0.11131016
45	0x3dc5af64	0.09652594
46	0x3daa37c4	0.08311418
47	0x3c94aa98	0.018147752
48	0x3cb67010	0.022270232
49	0xbde2e915	-0.11079613
50	0x3d67eb54	0.05662091
51	0xbd350367	-0.044192698
52	0x3d4e9207	0.05043223
53	0xbda4a196	-0.080386326
54	0xbdad980e	-0.08476268
55	0x3db3cd3e	0.08779381
56	0x3d79cbf9	0.06098554
57	0xbc8b379c	-0.01699429
58	0xbda56d10	-0.08077443
59	0xbdda9e8d	-0.106747724
60	0x3e103222	0.14081624
61	0xbc3119b9	-0.010809355
62	0x3d6990c7	0.057022836
63	0x3d986492	0.07441057

net.4.weight f4 [1, 64]
0	0xbdafeafd	-0.08589742
1	0xbdf03fd5	-0.11730925
2	0xbdb4951e	-0.08817504
3	0x3d6e3a96	0.05816134
4	0xbc5af900	-0.01336503
5	0x3db9bbad	0.090689994
6	0x3d03abbc	0.0321462
7	0xbe1ac5c1	-0.151145
8	0x3d816ce0	0.063195944
9	0xbca19e28	-0.019728735
10	0xbe550a95	-0.20804818
11	0xbdd99d3b	-0.106256925
12	0x3d81dbf4	0.06340781
13	0x3e3e5eaf	0.18590806
14	0x3e1af1e1	0.15131332
15	0xbd79c29f	-0.06097662
16	0xbdb58d2b	-0.08864816
17	0x3e0c1673	0.13680439
18	0x3e1bc84a	0.15213123
19	0x3dde2fe2	0.10848977
20	0xbdee222d	-0.11627612
21	0x3d92a1ca	0.07159765
22	0x3d7ed613	0.062215876
23	0x3dc5b196	0.096530125
24	0xbe033e2c	-0.12816685
25	0x3d8b41d7	0.06799667
26	0xbd4a0788	-0.04932359
27	0x3da0214e	0.07818852
28	0xbde7aeb9	-0.113126226
29	0x3e0b0a0a	0.13578048
30	0x3d907bf2	0.07054891
31	0x3d4998d9	0.049218033
32	0xbdebdc78	-0.115166605
33	0xbe06333f	-0.13105486
34	0x3cfed7c0	0.031108737
35	0xbdc253da	-0.0948865
36	0x3c89e368	0.016832069
37	0x3dc3cc82	0.09560491
38	0x3d965e71	0.07342232
39	0x3dfd01d3	0.123538636
40	0xbd816930	-0.06318891
41	0xbe1a4898	-0.15066755
42	0xbd484c0c	-0.04890065
43	0xbd9110e2	-0.07083298
44	0x3df16bdd	0.117881514
45	0x3ddd9e27	0.10821181
46	0xbe0f5c6d	-0.14000101
47	0xbe5fd5d6	-0.21858916
48	0xbde66700	-0.112501144
49	0x3da320e5	0.079652585
50	0x3d00db94	0.031459406
51	0x3d2e1524	0.04250063
52	0xbde5106c	-0.11184773
53	0x3ddf9964	0.10917929
54	0x3dc44b5e	0.09584688
55	0xbde75b0a	-0.11296661
56	0xbe2bf960	-0.16794348
57	0x3d544a51	0.051828686
58	0xbdae5d0a	-0.085138395
59	0x3dec3a9b	0.115346156
60	0x3df83d80	0.12121105
61	0xbe29420c	-0.16529101
62	0x3e1336bc	0.14376348
63	0xbda7332a	-0.08164056
