cstr/data/trained_models/seed_1/td3_pso/models/best_model_actor.pth (torch, 21121 bytes, 5 tensors)

net.0.weight f4 [64, 3]
00000000: e3ef 07be 6a21 6c3e e616 1fbd 2b74 fcbe
00000010: e7eb 953e 341e 67be ad22 053f f281 813e
00000020: 4d1a d73e 887f 7b3e e0dc 9b3e cc88 943e
00000030: 2132 dbbd e5e8 d2be 3892 1b3f 6217 ea3e
00000040: 5053 65bd 4f6c bf3e cafc e73e dde0 82be
00000050: 6f40 813e c1d8 01be 4bb9 623e 4999 9b3d
00000060: 69ec 34be 465b 873e 0ea8 773e 345d 763d
00000070: 682b c5bd c160 d4be be22 f93d 3cdd 0ebf
00000080: e829 863e a877 bdbb 19a7 adbe 733a e2be
00000090: e27f 993e 91ea d6be 2e5c 9ebe 8f24 363c
000000a0: 8a5c 053e 6af3 e4be 9625 13be 54ff 44be
000000b0: 8498 c4be baa9 4abe 9f21 a5bd 9006 523e
000000c0: d451 3e3b 1114 cb3e 35f6 133e cdd0 02bf
000000d0: 244e 083f 2f13 4bbe d808 5d3e 7f99 5e3d
000000e0: 82fa 7dbe f726 11bf feb6 e9be 7f25 a83d
000000f0: 3134 75bd 39b5 af3e 42a9 4c3e 4cc3 a2be
00000100: 1af6 733d 7b35 093f 2c5d bd3c 1dab 9bbe
00000110: 514f dd3e ae9c 2e3e 6bd0 7c3e abc4 06be
00000120: c167 03bf 18fe be3e 989a cb3e fc49 c23d
00000130: eb8b 0b3f 75c2 e03e 41ac 13bf 4f32 843e
00000140: 177e 843e 3a8b 54bd df90 a03e c5c5 a0be
00000150: 1260 f9be 9867 cdbe 3796 933d f163 31be
00000160: 8eb7 54bd 1d33 363e ad32 dabe ea65 85be
00000170: aa9d abbd a660 d03e ba8f 13bf 42a8 80be
00000180: 0c57 12bf 2237 9a3d e991 e6be 428d 693e
00000190: 1218 163e 08c7 62be b7a1 f7be d495 58be
000001a0: 08f1 2e3d cfd9 213e 3ef9 aebd 5402 013c
000001b0: 4b3b 00be d6b4 1dbd f803 df3d 98b5 f63e
000001c0: 5a21 073f 6c43 d5be b29d f53e f6a2 fe3e
000001d0: 79ad ff3e e81a 913c b230 4dbe e8ae 8d3e
000001e0: 5e0b 52be a434 053f 1708 07bf f6b4 253e
000001f0: deaa 5cbe fcb7 0b3e 85b0 dbbe 76d5 3dbe
00000200: a7af bcbd 3358 843e 0603 13bf a491 0b3f
00000210: f144 e63d cef7 b1be d204 723d 24b5 00bf
00000220: c15f 863e 4e65 6e3e 09ca d2bc f026 7d3e
00000230: d722 24bd 7d10 c0bc cdaa 1cbf 69b3 37be
00000240: 844f cbbe 7ebd 183f 24c0 f33e a894 b6be
00000250: e1af 03be 127d 90be 9e48 d8be 8a64 9bbe
00000260: 1c5a 8dbe ce33 f1be de77 0d3f a593 d5be
00000270: 5c49 4dbd c99e 363e 8396 fe3e e82e b5be
00000280: f334 0dbe b3d8 3bbe cff0 98be 02af 093e
00000290: 573e f6be bd09 11be e176 023f a572 8f3e
000002a0: 1cc3 063f 3dc0 0ebe 04dc 33bc b0d0 2d3e
000002b0: 79f9 823e 3ee2 96bd 3fc7 263e a265 24bd
000002c0: c12d e3bc 6cfd 37be 74ee af3e c711 f9be
000002d0: 5285 6ebe f23a 7bbc 6b9c ce3e eded ae3e
000002e0: 7c40 7e3e a493 d3be 88ed 4e3e 8513 b83e
000002f0: f5d0 123f 9aa4 e83e e5f8 a3be 1b39 fd3e
-0.13275103 0.23059621 -0.038840197 -0.4930738 0.29281542 -0.22570115 0.52006036 0.25294453
0.42012253 0.24560368 0.30441952 0.29010618 -0.10702921 -0.4119331 0.6076999 0.45720965
-0.055987656 0.3738732 0.4531005 -0.25562182 0.2524447 -0.12680341 0.22140996 0.07597596
-0.17668308 0.26436824 0.24185202 0.06014748 -0.0962742 -0.41480067 0.1216483 -0.55806327
0.26203847 -0.0057820864 -0.33916548 -0.44185218 0.2998038 -0.41975835 -0.30929703 0.011117115
0.13023582 -0.4471696 -0.14369807 -0.19238025 -0.3839761 -0.19791308 -0.08063053 0.20510316
0.0029040473 0.39663747 0.1444939 -0.51099855 0.53244233 -0.19831537 0.21585405 0.054345604
-0.24802592 -0.5670008 -0.45647424 0.08210277 -0.059864227 0.3431795 0.19986442 -0.31789625
0.059560873 0.5359723 0.023115717 -0.30403987 0.43224576 0.17051956 0.2468888 -0.1316096
-0.5133019 0.37303233 0.39766383 0.09486768 0.5451037 0.4389836 -0.57684714 0.25819632
0.2587745 -0.05189059 0.31360528 -0.31400886 -0.48706108 -0.40118098 0.072063856 -0.17323281
-0.051932864 0.17792936 -0.42616788 -0.26054317 -0.083796814 0.40698737 -0.57641184 -0.2512837
-0.57164073 0.07530047 -0.45033196 0.22807792 0.1465762 -0.22146237 -0.48365566 -0.21150905
0.042710334 0.15805744 -0.08543633 0.00787409 -0.12522618 -0.038502537 0.10889429 0.4818542
0.52785265 -0.41653 0.47971874 0.49733704 0.49937037 0.017713025 -0.20038107 0.27672505
-0.20512149 0.5203345 -0.5274672 0.16182312 -0.21549556 0.13644403 -0.4290811 -0.1853846
-0.092131905 0.2584854 -0.5742649 0.54519105 0.11243618 -0.34759372 0.05908663 -0.502764
0.2624493 0.23280832 -0.025731103 0.24721885 -0.04007229 -0.023445362 -0.6119812 -0.17939533
-0.39709103 0.5966414 0.4760753 -0.3566029 -0.12860061 -0.2822042 -0.42242903 -0.30350143
-0.2760781 -0.47109836 0.5526103 -0.41714206 -0.05011879 0.17834009 0.49724206 -0.3538735
-0.1378973 -0.18344383 -0.29871222 0.13445666 -0.48094437 -0.14163871 0.50962645 0.28017154
0.52641463 -0.1394052 -0.010977749 0.16974139 0.25580958 -0.07367371 0.16286944 -0.040135987
-0.027731778 -0.17967767 0.34361613 -0.48646376 -0.23293045 -0.015333878 0.40353712 0.34165898
0.24829286 -0.41323578 0.20207798 0.35952392 0.57350093 0.4543808 -0.3202583 0.4945763

net.0.bias f4 [64]
00000000: c95f dd3e 593f e13e a506 993e 0f73 e13e
00000010: bfa7 fe3e 777e 013f 1943 25be 5a62 163f
00000020: 4fed a3be 46ff 01bf 1f29 003f 5f17 993e
00000030: 0fbe be3e 922f c4be e11e bb3e 6239 fdbe
00000040: 6998 39be aaf1 aebd ce53 5ebe 2d88 c13e
00000050: 7cce 1b3f 726a 953e 66ef 3dbe 33d7 42bc
00000060: 77f3 7cbe a076 14be 9413 76be a250 f63e
00000070: 799d bdbd 99a5 f83d dbbf f53c a389 15be
00000080: 7f6d a4be 88cf dcbe bb34 8f3e 630c b53e
00000090: 9d55 aebe 769d 7c3e 0b0d bdbe 9fe5 69be
000000a0: 8630 49bd 27b0 3e3d 17e6 053f eda6 d63e
000000b0: 6dd9 19be 7ca0 723e b0d0 c83e 4f66 073f
000000c0: 5589 aa3e cefd ddbe 561a ef3e 5c89 2b3f
000000d0: 101e 30be 3239 ad3e 9c62 9e3d c63d b9be
000000e0: 1f48 ff3e 580d 05be 757d ec3e 9072 e43e
000000f0: 4ac1 223e db4d 023f 3795 f53e 1d8d c23e
0.4323714 0.43993643 0.29887882 0.44033095 0.49737355 0.50583595 -0.16138877 0.5874382
-0.3201699 -0.5078014 0.50062746 0.29900643 0.37254378 -0.38317543 0.36546996 -0.49457842
-0.18124546 -0.085421875 -0.21711656 0.37799206 0.60861945 0.29182774 -0.18548355 -0.011892128
-0.2470225 -0.14498377 -0.24030906 0.48108393 -0.09258551 0.1214096 0.02999871 -0.14603285
-0.3211479 -0.43127084 0.27969918 0.35361013 -0.34049693 0.24669442 -0.36924013 -0.228415
-0.04911854 0.04655471 0.52304214 0.4192423 -0.15024348 0.23694032 0.39221716 0.52890486
0.333079 -0.433577 0.4669978 0.6700647 -0.17198968 0.338327 0.07733652 -0.36179942
0.49859712 -0.12993371 0.46189466 0.44618654 0.15894046 0.5090005 0.47965404 0.37998286

net.2.weight f4 [64, 64]
00000000: 9e0c 62bd d473 6abd 3335 2a3b adf7 ae3d
00000010: ac32 b03b 982d b8bd 18fd 163b 9951 5b3d
00000020: 4279 b03d aa61 d0bd 94b6 333b 33e4 0abe
00000030: 5523 e9bd 8013 6db9 4600 82bb 439d 393e
00000040: ebb5 75bd 6c2d 7cbd 9cd8 adbb 360b 0e3e
00000050: 2560 0a3e 9ca0 a03d dd80 9ebd 4728 b33c
00000060: 9032 98bd 3eac 4cbe 6512 48be e43c 1dbd
00000070: cd4c 3bbe 190a dbbd ba1b f9bc 413b 27bd
00000080: b7e2 2abc 9c7b 043d 7fc2 853d 5e91 9e3d
00000090: cd79 94bd e313 fc3c c91c c93d 1c30 cd3d
000000a0: 66b7 433d 1e25 9abc c8f0 21bd 7316 013e
000000b0: e731 6dbd c53f f73c 0a8c 07be ea76 633d
000000c0: eec5 933d d95a 0ebd 6162 aebd 3af8 483d
000000d0: 2bca 42bd 7f30 46be f557 b33d caea b13d
000000e0: 5cb0 86bd 7a2a bd3d 026a 4dbd d6bc aa3d
000000f0: 7353 74bd 1f6b 9e3d d856 253e 95f9 ce3d
00000100: 6894 c03c d520 a0bd 6034 2fbc 5c9c a43d
00000110: eaf4 e63d 47b8 de3d 1035 903d 188b 2e3b
00000120: 2ded 2b3e a1b7 3fbe dc12 ac3c b12b 273e
00000130: 158f 3fbe 508a 9b3d e554 62be 3af7 d8bc
00000140: 9d5a 87bd 4cb5 0bbc 0a5f 21be a0fa 23bc
00000150: 3736 273e 4260 143e 106e 60bd 5146 6a3d
00000160: 7451 0b3e c2b8 b5bd dd12 89bd 5438 1cbd
00000170: 688b c83d 057a 383e f1e9 c13d 002a 13be
00000180: 16cc be3d ea45 cebd daf2 7dbd cc26 013d
00000190: f758 8a3d a4e6 4ebb 5f62 76bd 86ea c4bd
000001a0: 8d38 a83d 23c2 22bd f366 453c fe6b 8c3d
000001b0: eac9 493d bc1a f7bb c80d ec3d 32f2 0c3e
000001c0: e956 2b3d a0ca 023e 7646 0e3d f775 f83b
000001d0: 7466 273e 281a 243d c073 983d 3a2d d2bd
000001e0: 4c9d 66bc 0098 ab3d 2d39 b03d 80e9 0e3c
000001f0: c4de 2b3c 0a4d b13d 9d51 5b3e 6092 013e
00000200: a1da 8abd c1f6 f33c 4ad2 453d 3837 4c3d
00000210: 5280 e13c 2f12 7ebd 2b55 6b3d 4bda 693d
00000220: 8277 3bbd 748d 02bd 6232 30bd c88c c8bd
00000230: 6007 203e 51be 52bc c6f5 453d 6318 33be
00000240: 318d 3cbe 3f0a 0cbd c29b 193e de31 94bd
00000250: 1e53 e8bd 0bac fa3d 2074 8b3d e8d0 8c3d
00000260: 5505 bbbd 0e01 143e 8265 ee3d eac3 b5bc
00000270: 7ed5 ebbd 8585 d8bd 156a a2bc eeeb 18bd
00000280: aa88 0ebe 1b4b f6bd 17ac 6f3d c753 16be
00000290: 59df 003e c4bc c23d cb86 afbd 86c9 453d
000002a0: 4e18 c2bb d822 e6bb c12c c7bd 3e51 32bd
000002b0: fdcd 06be 5a20 49bd bf86 ecbd 8022 04bc
000002c0: 36bd bbbd 1b7d 75bd 82f1 f4bc 0afb 66bd
000002d0: 74a7 a33d c702 c5bd 39bc 0dbe 1520 9bbd
000002e0: 19cd 78bd e06e edbc c3e9 7e3c 026f c43d
000002f0: 75c8 af3c 0f9d 0d3e a6a9 9fbd cdef febd
00000300: f963 723d 5bf7 23bd 8140 2a3d f08f d93d
00000310: 4d09 0abe 3622 c63d 7b32 8c3d 0c1c a03d
00000320: dc6f 35be 6833 d83d 5c63 a9bd 2290 3cbd
00000330: cad9 dabd 6070 0d3e 7ea8 2c3d 0bad ca3d
00000340: 24f9 a8bc bd0c b83d 25df 8c3d 5f01 3abd
00000350: fdab 1c3e f0dc 963b a4bf 593d 0f15 0cbe
00000360: 92c0 cdbd a767 af3d ad94 043e f3d6 c93d
00000370: bc16 433c a666 01bd 6614 6e3d 880e a8bd
00000380: 0a11 1b3d c0cd 903d 80ae 29be f077 99bb
00000390: 7ef5 a33c 0c03 3bbc c066 113c c25d 2bbc
000003a0: f89a 0abe 4ef4 e43d 1356 f83c 3997 b1bd
000003b0: 8df6 86be f8ed e2bc 259c 0c3c 909b e43b
000003c0: a33f efbc 8c72 1b3e b0aa 7abd 5c78 0dbb
000003d0: 6801 44bd 42fc cfbd bb3a e43d 316f bd3d
000003e0: e23a e93d d456 c83d 84d7 98bd acbd e53c
000003f0: 781a e6bd ee95 1a3d f4e3 11be 2fb0 ebbd
-0.055187814 -0.05723937 0.002597165 0.08543334 0.0053771343 -0.08993071 0.002303904 0.053544614
0.08616878 -0.10174878 0.0027422057 -0.13563614 -0.11383692 -0.00022609346 -0.0039673178 0.18126397
-0.059987944 -0.061566755 -0.005305363 0.13871464 0.13513239 0.07843134 -0.077394225 0.021869792
-0.07431519 -0.1998758 -0.19538267 -0.038388148 -0.18291016 -0.10695285 -0.030408729 -0.040827993
-0.01043003 0.032344446 0.06531238 0.0774257 -0.07249794 0.030771201 0.098199435 0.10018942
0.047782324 -0.018816527 -0.039536268 0.1260622 -0.05790892 0.030181775 -0.13237014 0.055533327
0.072154865 -0.034754608 -0.08514858 0.049064852 -0.047556084 -0.19354437 0.08757011 0.086873606
-0.06576607 0.092366174 -0.050149925 0.08336799 -0.059649896 0.077352755 0.1614641 0.10106198
0.023508266 -0.07818762 -0.0106936395 0.08037636 0.112771824 0.10874992 0.07041371 0.00266332
0.16789694 -0.18722393 0.021005087 0.1632526 -0.18706925 0.075947404 -0.22102697 -0.026485074
-0.0660908 -0.008527111 -0.15758911 -0.010008484 0.16329275 0.14489844 -0.054792464 0.057195965
0.1360529 -0.088731304 -0.06693051 -0.038139656 0.09792215 0.18015297 0.09468449 -0.1437149
0.0931627 -0.10071929 -0.06199918 0.03153114 0.0675525 -0.0031570578 -0.060152408 -0.09615044
0.08213911 -0.039735924 0.012048471 0.068565354 0.049264826 -0.007541029 0.11526066 0.13764265
0.04183093 0.12772608 0.034735166 0.007582422 0.16347677 0.040064007 0.074439526 -0.102625325
-0.014075588 0.08378601 0.086046554 0.008722663 0.010490123 0.08657272 0.21417852 0.12653494
-0.067799814 0.029780747 0.04829625 0.04985735 0.027527008 -0.06202906 0.05745427 0.057092946
-0.04576827 -0.03187318 -0.0430168 -0.09792477 0.15627813 -0.012862758 0.04833009 -0.17489772
-0.18413235 -0.03418946 0.15000823 -0.07236074 -0.11343978 0.12239846 0.068092585 0.06875783
-0.091318764 0.14453527 0.11640455 -0.022188146 -0.1151533 -0.10572342 -0.019825974 -0.037334375
-0.1391932 -0.12026044 0.058513727 -0.14680396 0.125852 0.095086604 -0.085706316 0.04828789
-0.0059233075 -0.0070231967 -0.09725333 -0.04353451 -0.13164516 -0.04910312 -0.11549138 -0.008064866
-0.091669485 -0.059933763 -0.029900316 -0.056391753 0.079909235 -0.0961967 -0.13841332 -0.075744785
-0.06074247 -0.028983533 0.015558663 0.095914856 0.02145789 0.13829444 -0.0779603 -0.12448082
0.059177373 -0.04003082 0.041565422 0.10623157 -0.1348011 0.09674494 0.06845566 0.078178495
-0.17718452 0.1055668 -0.082709044 -0.046035893 -0.10686071 0.13812399 0.042152874 0.098962866
-0.020626612 0.08986805 0.06878499 -0.045411464 0.15299983 0.0046039745 0.05316128 -0.13679908
-0.100464955 0.08564692 0.1294734 0.098554514 0.011907276 -0.031592034 0.058124922 -0.082058966
0.037858047 0.07070494 -0.16570473 -0.004683487 0.02001452 -0.011414301 0.008874595 -0.010459365
-0.13535678 0.1117941 0.03031448 -0.086714216 -0.26359978 -0.027701363 0.00858215 0.0069765523
-0.029205149 0.15180415 -0.061197937 -0.0021586632 -0.047852904 -0.10155536 0.111440144 0.09249724
0.11388184 0.09782186 -0.07462981 0.028044544 -0.11235517 0.03774064 -0.14247113 -0.11508214

net.2.bias f4 [64]
00000000: 9420 9a3d d5ef ce3d 984c e4bb b98d 9ebd
00000010: 56e6 353e a02b a53d 0dd2 d1bd a12c 923d
00000020: f941 ebbd c332 25be 79a1 0e3d ccde be3d
00000030: ac04 91bd b402 25be 4681 8e3d a81a 8ebc
00000040: 5ea0 ac3b 64a3 0c3c b649 be3d b7a2 0f3e
00000050: 422f a7bd 1fce e63d f819 5e3d 0e8c 133d
00000060: ec5e d7bc fb09 1fbd 55f9 1d3e e547 b7bd
00000070: 9d54 cf3d 693f 513d 1a2c a63d 39fc 32be
00000080: f1ac 763d a16f f83d 1896 023d 3d76 18be
00000090: fe1f a9bd 7261 42be 643d 8abc 863c 91bc
000000a0: 03a4 cf3d 9776 9e3d 21c7 913d 54ad edbd
000000b0: 951f de3d 1ff8 3e3d 7279 2b3d 5a00 183e
000000c0: e6d4 193e 8780 b8bd 766a bebd 189c 1b3e
000000d0: c459 debd 1bd8 123d 18ad ac3d 625b e03d
000000e0: 9654 333d c54c 763c c59f 613d 748e 42be
000000f0: 0e68 89bd 93a1 a5bd 2000 ff3c 432d 93bd
0.07525745 0.10104338 -0.0069671385 -0.07741875 0.17763647 0.080649614 -0.10245142 0.071374185
-0.11487193 -0.16132645 0.03482196 0.09319839 -0.07080969 -0.16114312 0.06958251 -0.017346695
0.0052681407 0.008583877 0.09291403 0.14026915 -0.081633106 0.11269783 0.054223984 0.03602224
-0.02629038 -0.038827877 0.15427144 -0.0894926 0.101235606 0.051085863 0.081138805 -0.17479028
0.060223524 0.121306665 0.03188142 -0.14888854 -0.08258055 -0.18982485 -0.016874976 -0.017729055
0.10138705 0.07737463 0.07118059 -0.11605325 0.108458675 0.046623345 0.041863866 0.14843884
0.1502262 -0.0900889 -0.092976496 0.15196264 -0.10856965 0.035850625 0.084314525 0.1095493
0.04378184 0.015032952 0.05508401 -0.18999654 -0.067093 -0.080874585 0.03112799 -0.07186367

net.4.weight f4 [1, 64]
00000000: 71ad 81bd a26d 823c d74e a53d 7fe8 d7bd
00000010: 9775 9f3d e25c 493e d8c4 d33d 8a86 27be
00000020: 64ea ab3d 19f0 293d fcbe c0bd 8091 493c
00000030: 2cba 193c ec69 78bc 4446 763d e245 c13d
00000040: 7de0 ed3d 8439 0c3e 3b1b 02be 6413 10be
00000050: 32f1 98bc 70ac 0b3e 5422 643d 50e4 923d
00000060: cb88 54bd f640 72bd 33b9 433d 1861 2bbd
00000070: d48a 1c3d 0135 20be 667b 02bd b050 06be
00000080: 3f28 23bd 6190 7fbd a516 04be c41d 8abc
00000090: 17b0 1f3e 66be 84bd 4ce9 433e f4e6 ed3d
000000a0: f369 dcbd 744a 223d 5914 f1bc a96d a6bd
000000b0: 2ae9 8ebd d4ef 0ebe 2128 5cbd b98f 55bd
000000c0: f02f d83b b85b 073d 9d51 893d 52b3 eb3d
000000d0: f10a c63d 2a28 193d b7ee 1a3e fe04 87be
000000e0: 7055 083b 3802 babb c959 a93d 2e94 26be
000000f0: 4376 fa3d b098 40bc b90f 913d c827 9d3d
-0.063319094 0.015921418 0.08071678 -0.10542392 0.077861 0.19664338 0.10340279 -0.16359916
0.08394316 0.04148874 -0.094114274 0.012302756 0.009382766 -0.0151619725 0.060125604 0.09437157
0.11615083 0.13693815 -0.127057 -0.14069897 -0.018669698 0.13639998 0.0556968 0.071724534
-0.05188827 -0.059143983 0.04778404 -0.041840643 0.038218334 -0.1564522 -0.031855963 -0.13116717
-0.039833304 -0.06239355 -0.12899263 -0.016859896 0.15594517 -0.06481628 0.19131964 0.116163164
-0.10762396 0.039621785 -0.029428648 -0.08126385 -0.06978066 -0.13958675 -0.053749207 -0.052139018
0.0065975115 0.033046454 0.067050196 0.11508812 0.09670056 0.03739182 0.15130125 -0.26370996
0.0020802878 -0.005676534 0.08269078 -0.16267464 0.12229588 -0.011755154 0.07083077 0.07673603
