cstr/data/trained_models/seed_3/td3/models/best_model_actor.pth (torch, 21121 bytes, 5 tensors)

net.0.weight f4 [64, 3]
000000 1c 69 15 3e 8b 21 7a be b2 c0 09 3e 50 d4 02 bd
       0.14590877 -0.24426858 0.13452414 -0.03194076
000010 a8 6b 9d 3e c5 f8 82 3e 7a e6 87 bd fa fb ee be
       0.30746198 0.2558042 -0.06635757 -0.46676618
000020 22 fb 06 3e fc da 02 bf f8 66 9b 3d 4d 29 1d 3d
       0.13181737 -0.51115394 0.07587999 0.038369466
000030 71 8b 3a bd b6 38 d8 3e 12 e0 ec 3d f8 86 74 3e
       -0.045543138 0.42230767 0.115661755 0.23879611
000040 d4 03 99 3e 49 6a f9 be cf 54 bc bd d0 ac f0 3e
       0.29885733 -0.48713902 -0.091958635 0.47006845
000050 8e 73 16 bf 14 bb 1d bd 8d 75 2e 3c b7 a8 02 3f
       -0.5877007 -0.03850849 0.0106481435 0.5103869
000060 ad d2 60 bd dd ac 1b 3e 6e 0a e3 bc aa 85 a5 be
       -0.054888416 0.15202661 -0.027714934 -0.3232854
000070 8a 8b a7 be 34 9d 8f be 81 43 06 bf 61 d7 bf be
       -0.32723647 -0.28049624 -0.5244675 -0.3746901
000080 ce 23 0b 3e 19 cf c1 3e 09 e0 bf 3d 43 12 e7 be
       0.13587877 0.37853315 0.09368903 -0.4513112
000090 54 a5 84 3e 77 50 80 be 40 31 bc 3c 79 3f 75 be
       0.25907385 -0.2506139 0.022972703 -0.23949994
0000a0 84 68 ac bd b2 40 18 bf 1e 2b 85 3e 6a a7 3e 3e
       -0.08418372 -0.5947372 0.26009458 0.18618551
0000b0 f8 fd 6d 3e 50 11 a2 3e 84 95 9d 3e 2c 91 a2 bd
       0.23241413 0.31653833 0.30778134 -0.079378456
0000c0 01 cf 95 3d 51 ca 01 bd 6d 06 ea 3e 1c 4c c7 3e
       0.073148735 -0.031687085 0.45708027 0.38925254
0000d0 80 af ea 3e 4c b2 b1 3e 4c 24 10 be 91 8d d2 bc
       0.4583702 0.34706342 -0.14076346 -0.02570227
0000e0 f9 4a f0 bd 64 05 ac 3e 01 de c2 3d 65 74 b0 3e
       -0.1173305 0.33597863 0.09515 0.34463802
0000f0 5d 25 98 3e f2 fe 04 bf a7 f2 a4 3e 5d 53 11 3f
       0.29716006 -0.51951516 0.3221638 0.5676783
000100 27 8c 0f 3f d7 e8 02 be e3 27 3a 3e c8 56 fc be
       0.5607323 -0.12784134 0.18179278 -0.4928496
000110 d3 6e a7 3d 97 67 93 3e 28 73 16 bf 81 55 1d 3f
       0.08175435 0.2878997 -0.58769464 0.61458594
000120 2c 8e 9f be 5e 07 9d 3e 98 56 e9 3d ec c1 cb 3d
       -0.31163156 0.30669683 0.113934696 0.09949097
000130 5e 9f 77 3d 3a 73 4f bf d8 06 8d bd 0f fb ba be
       0.06045472 -0.81035197 -0.06886071 -0.36519668
000140 b2 c8 e3 3e bc 1a 7d bd f2 ba 0f bf 66 89 be 3e
       0.44489056 -0.061793074 -0.5614463 0.37214202
000150 33 e7 8c 3e 90 34 8f be ab b0 35 3e 00 0c 7f 3e
       0.2752014 -0.2796979 0.17743175 0.24906921
000160 32 61 e6 be 59 b2 49 3c 94 20 91 bc 72 de ed be
       -0.4499603 0.012310588 -0.01771573 -0.46458775
000170 09 89 dd 3e a3 a1 3f 3d 5d 29 c0 3e 20 73 6d 3e
       0.43268612 0.04678501 0.37531558 0.23188448
000180 65 cf e3 be 73 3f b8 be f9 2f ca be ac 03 3e be
       -0.44494167 -0.35985908 -0.39489725 -0.18556088
000190 95 0a 58 be dd 85 be bd c1 fb 0e bf 27 aa 79 3e
       -0.21097787 -0.09302876 -0.55852896 0.24381314
0001a0 9f b2 a7 3e e6 9c 59 3e ab 7f 4a 3e ee 0c c2 3e
       0.32753465 0.21251258 0.19775264 0.3790049
0001b0 5c dc d2 be 0e 28 28 3e 49 e6 06 3f 87 3a d6 be
       -0.41183746 0.1642153 0.5269514 -0.41841528
0001c0 68 9e 83 be 6b 12 f9 bc d6 4b ab be fd e5 a6 bd
       -0.25706792 -0.03040429 -0.33456296 -0.081493355
0001d0 ef 40 c7 bd 2f 39 06 3f e5 37 b3 bc 20 d1 d6 3e
       -0.09729182 0.52431005 -0.021877239 0.41956425
0001e0 ae fb df 3e e2 93 73 3e f5 c0 c3 be 13 4f ea 3e
       0.43746704 0.23786882 -0.38233152 0.45763454
0001f0 91 d8 ad 3e 42 20 3b be c0 ce 52 be 48 32 c9 3e
       0.3395429 -0.18274024 -0.20586681 0.39296174
000200 c2 ad 0f bf 0c 8b 01 bf fe 58 c8 be 30 38 38 3e
       -0.5612451 -0.50602794 -0.39130396 0.17990184
000210 1f 6e 71 be c6 d0 03 bf 64 2b 65 3e b3 63 91 3e
       -0.23577164 -0.5149044 0.22379833 0.28396377
000220 60 87 a0 3e 6b 90 2c bf a5 77 10 3f 30 a4 9f bd
       0.31353283 -0.67407864 0.56432563 -0.07794988
000230 f7 c5 de be 7d 00 b2 bd 17 13 c1 3e 49 22 88 3e
       -0.4351041 -0.086914994 0.37709877 0.26588657
000240 07 30 ca bb 66 63 d0 3e e8 d9 06 bf cd 98 ce 3e
       -0.006170276 0.40700835 -0.5267625 0.40350953
000250 3c 97 06 3f aa f7 03 be dd f3 05 3e 2c ce 4d bd
       0.52574515 -0.12887445 0.13081308 -0.05024545
000260 55 9e b1 3c ea da a5 bb 7e 20 46 be ec 7c fc be
       0.021681944 -0.005061497 -0.19348332 -0.49314058
000270 55 80 6f be f0 6e fd 3d 74 da b9 3e bf 4b 54 3e
       -0.23388799 0.12374675 0.3629948 0.2073202
000280 1f 1b ca be b3 05 06 3f 82 2d 52 3d 20 88 19 bf
       -0.39473817 0.52352446 0.05131293 -0.59973335
000290 54 02 0c 3e 4a ad c1 3e 64 c7 e8 be 95 d4 dd 3d
       0.13672763 0.37827522 -0.45464623 0.108315624
0002a0 4a 46 93 be da 15 e9 be 3c f7 a7 be 2b 44 8f 3d
       -0.28764564 -0.45524484 -0.32805812 0.06995424
0002b0 78 fb d5 3e aa 4e c0 be 80 eb 04 bf ca f1 a1 bb
       0.41793418 -0.37560016 -0.51921844 -0.0049421536
0002c0 08 8c 00 bf 71 99 e1 3c 48 1f 01 3f 8c 8d 9c 3c
       -0.5021367 0.027538987 0.50438356 0.019110464
0002d0 6c f9 47 be af e5 fe bd f6 4f 31 3e 29 34 1e 3e
       -0.1952874 -0.124461524 0.17315659 0.15449585
0002e0 db 4c da be 9d eb 4c 3b fb 15 51 be 3c 43 59 3e
       -0.4263676 0.0031268366 -0.20418541 0.21217054
0002f0 ac 0f 04 3f 30 ab 85 3e fd 50 26 3e f7 c0 99 be
       0.51586413 0.26107168 0.16241832 -0.30030033

net.0.bias f4 [64]
000000 d1 55 c2 3e 80 97 69 3e 07 1c 3e be 5e d5 8d be
       0.37956098 0.22811699 -0.18565379 -0.2770185
000010 a1 3f 7c 3e 7a 53 a0 be b4 3d c1 3e 6b a3 eb 3e
       0.24633648 -0.31313688 0.37742388 0.46023116
000020 c2 0b c3 be df 64 b8 be ed 9c 75 be 52 a6 fd be
       -0.38094908 -0.3601446 -0.23985644 -0.49540955
000030 aa ed 68 bd 6c 96 d9 3e 28 e3 72 3e a2 08 27 be
       -0.05686728 0.42497575 0.23719466 -0.16311887
000040 e7 0b 56 bd 1f 74 63 be 80 9f ee be f5 d6 15 be
       -0.052257445 -0.22212265 -0.46606064 -0.14632781
000050 59 08 f0 3c 4c 64 80 be d7 a2 e8 be e6 e2 38 3e
       0.029300855 -0.2507652 -0.45436737 0.18055305
000060 ab 33 1b 3e 85 43 3a be 6e 80 6f 3e f1 f1 13 3f
       0.15156429 -0.18189819 0.23388836 0.5779105
000070 43 c3 9f 3d 4c a1 d4 be 26 73 1e 3f 8b f4 d8 3e
       0.07800915 -0.4152931 0.6189445 0.4237407
000080 a6 b5 61 bd 72 86 85 be 33 75 79 be 81 d4 0d 3f
       -0.055104874 -0.26079136 -0.24361114 0.5540238
000090 e3 2a ea 3e 69 03 98 be 9f 3a 7e 3d f2 46 17 3e
       0.45735845 -0.29690102 0.062067624 0.14773157
0000a0 3e 05 2f 3e b6 4e 1e 3d 07 b6 9a be 47 7b 91 bc
       0.17091843 0.038649283 -0.30217 -0.017758979
0000b0 af 4f 23 be fd be 4d be a5 61 95 be 6c 55 8f be
       -0.15948366 -0.20092387 -0.2917606 -0.2799486
0000c0 21 4b 8b be 49 1e 57 3e 94 6f 06 bf d0 93 0c bf
       -0.27205756 0.21007647 -0.52514005 -0.54913044
0000d0 db fc 24 3f 40 81 6e 3e 9f 27 a7 3e 7a 0f 7c 3e
       0.64448327 0.23291492 0.32647416 0.24615279
0000e0 e9 80 61 be da 0b b2 be 47 80 c9 be 9e 99 ea bc
       -0.22021832 -0.34774667 -0.3935568 -0.028637704
0000f0 f5 8f 80 3e 2a 3d 16 bf 5c f8 e2 be 48 21 aa 3e
       0.2510983 -0.5868708 -0.44330108 0.33228517

net.2.weight f4 [64, 64]
000000 78 01 ac 3c 03 b5 d3 3d 9c 05 e4 3d ea 9e 9b 3d
       0.020996794 0.103372596 0.111338824 0.0759867
000010 97 ca 70 3c ba b9 56 bd 9b db 9e 3d 00 75 e0 3d
       0.014696739 -0.052423216 0.0775673 0.10959816
000020 7a 6e f5 bd 3c 71 09 3d fc 58 c5 bd 91 82 c0 bd
       -0.11983962 0.033555254 -0.09636113 -0.093999036
000030 55 f8 52 3d 7a 75 8c 3d 8e f8 3d 3d 3f 62 21 3d
       0.05150636 0.068583444 0.04637962 0.039400335
000040 84 70 d8 bc a8 dd d1 3b 48 0e e2 bd 12 32 9c bd
       -0.02642084 0.0064045973 -0.1103788 -0.07626738
000050 5f fb 26 3c 8a b8 d4 bc f3 a9 09 3c a6 5b a1 3d
       0.0101917675 -0.025966901 0.008402335 0.07878809
000060 c5 b7 f6 3a 27 71 c8 bc bd 00 00 3d 28 46 99 bd
       0.0018823078 -0.024468018 0.031250704 -0.07484084
000070 b3 4c 90 3d 9b b8 9c bd 6c 68 4f 3d c9 15 bc bc
       0.07045879 -0.07652398 0.050636694 -0.022959607
000080 32 51 c7 3d 06 57 a3 bd b8 4b a7 bd f6 ee 8a 3c
       0.09732284 -0.07975583 -0.08168739 0.016959649
000090 d6 8b 04 3d b8 3b 5c bd da 21 df 3d b4 82 d1 bd
       0.03235992 -0.05376789 0.108951285 -0.10230008
0000a0 3e ce 91 3d 1a a0 82 3d d8 41 ec bc 5c 61 35 3d
       0.07119416 0.06378193 -0.02883999 0.044282302
0000b0 f8 06 ac bc cf ef bc bd 20 d3 b1 3d 80 fe 05 bd
       -0.020999417 -0.09225427 0.08682847 -0.032713413
0000c0 78 70 96 bc 15 fc ff 3d 6c b1 6e 3e 62 8f be bd
       -0.018364176 0.12499253 0.23309869 -0.09304692
0000d0 3b 50 b9 bc b3 b5 9f 3d 94 8d b6 3d 66 d3 ae bd
       -0.022621265 0.07798328 0.08913723 -0.08536415
0000e0 60 36 ba bd 5f 10 a5 3d b4 cc ae bd 04 91 a3 3d
       -0.090924025 0.08059763 -0.08535138 0.07986644
0000f0 67 11 b0 bd 19 da 4a bc ac 9e 47 3d ff e8 92 3d
       -0.08597069 -0.0123811 0.048735306 0.07173347
000100 60 17 4d bd 21 07 a0 bd 54 35 44 3d a4 01 25 3d
       -0.05007112 -0.0781386 0.04790242 0.040284768
000110 af d4 08 3d 30 52 ee bd 9d 7d bb bc 60 1e 54 bd
       0.033405956 -0.1163677 -0.022887046 -0.05178678
000120 80 69 a9 3a 08 5c e5 3d 94 e1 b9 bd 82 2d 3d bb
       0.0012925118 0.11199194 -0.09076229 -0.0028866236
000130 18 25 c4 3d 24 34 aa 3d 85 41 08 be c1 f4 5c bc
       0.095773876 0.08310726 -0.13306244 -0.013486088
000140 54 80 6a 3c 89 a6 ca bd de 3c 9f 3d ce f5 0f bd
       0.014312822 -0.09895045 0.07775281 -0.035146527
000150 fe cb cf 3d 39 aa 01 be a8 a2 b3 3c 5f e1 99 3d
       0.1014633 -0.12662591 0.021928146 0.07513689
000160 b2 ae 96 3d a6 05 80 bd 5a 60 d3 bd af 12 98 ba
       0.07357539 -0.06251077 -0.10321112 -0.0011602248
000170 42 2d 92 bd ea 87 a1 3d 36 43 8e bd c1 c4 f7 3b
       -0.071375385 0.07887252 -0.06946413 0.0075612967
000180 48 ff df bd 00 4a c3 b9 e6 71 e0 3d 35 98 73 3d
       -0.10937363 -0.00037248433 0.109592244 0.059471328
000190 dd 0f 68 3d 6c 63 96 bd a7 80 ce 3d 3f 92 9c bd
       0.056655753 -0.07343182 0.10083132 -0.07645082
0001a0 5d 32 ef 3d 6b d7 c2 bd f8 a1 7c bd 14 e1 1b bd
       0.11679528 -0.09513744 -0.061677903 -0.038056448
0001b0 c8 81 ab 3c bd 6b 45 3d 57 6c bc 3b 04 ae 3f bd
       0.020935908 0.04819845 0.00575022 -0.046796814
0001c0 56 e4 cb bd 73 ac 24 bd 08 72 72 bd da 6b 9a bd
       -0.09955661 -0.040203523 -0.05919078 -0.07540102
0001d0 60 6d a4 3d e4 ca 97 3b ab 46 92 bd 92 03 56 3d
       0.08028674 0.0046323407 -0.07142385 0.0522495
0001e0 ea a7 ac bd ae 88 96 bd 60 64 46 bc 04 18 db 3c
       -0.084304646 -0.07350288 -0.012108892 0.02674485
0001f0 3c 73 83 3d 8c ba ac bd 1a 93 b4 bd f1 72 27 3d
       0.064184636 -0.084340185 -0.0881712 0.0408811
000200 00 77 14 bc 40 90 52 3c c0 4b 69 3b 68 45 b7 bd
       -0.009061575 0.012851775 0.003559813 -0.08948785
000210 50 c4 ac bc 0c 9d 23 bd f0 0c b1 bc fc f7 a0 3d
       -0.021089703 -0.039944693 -0.021612614 0.07859799
000220 d2 39 f0 bd 90 86 3a 3c 26 fb fa 3d 3e 09 e5 bd
       -0.11729778 0.011384621 0.12254934 -0.111834034
000230 7c 3c 37 3d a2 b0 fd 3d b2 2d 8f 3d 92 29 89 3d
       0.044735417 0.12387206 0.069911376 0.06697382
000240 14 1d 41 bd 00 8e 52 3d 80 80 6e 3c e0 ba f7 3d
       -0.04714687 0.051404953 0.014557004 0.120961905
000250 ec b8 f6 bd 10 ba 83 3d 36 be 9c bd 3a a3 e6 bd
       -0.1204699 0.06431973 -0.07653467 -0.11261602
000260 ea a1 ee 3d 40 1b cf 3c a4 2a 8d bd ba 41 f0 bd
       0.116519764 0.025281549 -0.06892899 -0.11731286
000270 90 21 cd bc 88 b9 df bc a0 cc 1c bc 3c 73 15 bd
       -0.025040418 -0.027310148 -0.009570271 -0.03648685
000280 b0 8d 0c 3d 0c e8 ab 3d 3e 30 ce bd 78 1e 42 bd
       0.03431481 0.08393869 -0.10067795 -0.04739234
000290 be f0 d9 3d 9e 37 f4 bd 3a 43 cd 3d f0 fa cd bc
       0.10641621 -0.11924671 0.10022588 -0.02514407
0002a0 d8 4e 0c 3d 14 fb 84 bd ec fa 72 3d 10 76 7b 3c
       0.03425488 -0.06493202 0.05932133 0.0153479725
0002b0 e8 a4 fc bc 1a d2 f1 3d 0c 91 e6 bd 18 17 dd 3d
       -0.030840352 0.11807652 -0.11258134 0.107954204
0002c0 5e 4e ac 3d 68 85 9d bc 4c 50 1f bd 74 e1 cc 3d
       0.08413385 -0.019228652 -0.038894936 0.10003939
0002d0 b0 c6 4c 3d 08 5a e3 bd 7c cc c5 bd c2 7c fa bd
       0.04999417 -0.111011565 -0.09658143 -0.12230827
0002e0 74 c7 57 bd 70 b6 aa bc f0 93 3b 3d b4 1c 96 3d
       -0.052680448 -0.020838946 0.04579538 0.073296934
0002f0 ec 48 e4 bd b6 9d 82 3d f8 33 32 3d a8 02 28 3d
       -0.11146721 0.06377737 0.043506593 0.04101816
000300 ce df a6 bd 09 4c 89 bd 60 dd 75 bc 0c f4 77 3d
       -0.08148156 -0.06703956 -0.015006393 0.060535476
000310 20 22 48 bc b0 61 a9 bc 1e 23 1d 3c ca eb 42 3d
       -0.012215167 -0.020676464 0.009590892 0.047588147
000320 60 d7 78 bc b0 60 25 3c 44 1d 85 bd 76 e2 fb 3d
       -0.015188068 0.010093853 -0.064997226 0.12299053
000330 98 a3 c4 3b 2e 80 d7 3d c5 6d 9a bd ca 89 06 bc
       0.006000947 0.10522495 -0.07540468 -0.008211562
000340 22 54 55 3d 54 43 5c bd c0 71 c6 3b 39 d2 50 bd
       0.05208219 -0.053775147 0.0060560405 -0.050981734
000350 6f a2 f3 bc c3 e0 e3 3c be c3 e1 bd 74 56 86 3d
       -0.02974054 0.027817136 -0.11023663 0.065594584
000360 57 5d 08 3e 2a a8 bf bd e0 e5 14 3c ab 87 19 3c
       0.13316856 -0.093582466 0.00908801 0.009370725
000370 2d 36 d1 bd 83 7f 99 bc bd fe 10 3e ad 96 52 3d
       -0.10215411 -0.01873756 0.14159675 0.051413227
000380 c0 13 8c bb 16 63 ed 3d dc d9 16 3d e9 a5 04 3e
       -0.0042748153 0.11591165 0.03682886 0.12953915
000390 d8 ed e0 bd 36 10 89 3d 01 db ea 3d db 8a 9b 3d
       -0.10982865 0.06692545 0.11467553 0.07594844
0003a0 a0 38 27 3b 1f 7d e6 3d 60 b1 7b bd 3c e9 37 3d
       0.002551593 0.11254334 -0.061448455 0.044900164
0003b0 22 dc fd bd 30 50 80 bd 8d c7 cb bd 78 7e c5 bd
       -0.123955026 -0.062652946 -0.09950171 -0.096432626
0003c0 68 54 4a bd 7b 2a ac bd fc fd 43 be 5c 0c 83 bd
       -0.049396902 -0.0840654 -0.19139856 -0.06398842
0003d0 77 1b b9 3d 54 46 15 3e 12 3c c6 3d 36 57 e3 bc
       0.09038442 0.1457761 0.09679426 -0.027751546
0003e0 60 f5 96 bd d1 2e d1 3c 02 95 99 bd a2 fd bf bd
       -0.0737102 0.02553502 -0.07499124 -0.093745485
0003f0 7b 94 2f bd c9 6f 6c 3d fc 84 d0 3d 66 79 9b bd
       -0.04286621 0.057723794 0.10181615 -0.07591514

net.2.bias f4 [64]
000000 e6 6b 99 bd 1d b9 2b 3b c0 e7 08 3d d2 c9 61 3d
       -0.07491283 0.0026202865 0.03342414 0.05512411
000010 83 9f 23 bd 7f 48 5a bd a0 6f 11 3d 94 ef eb bd
       -0.039947044 -0.053291794 0.035506845 -0.11520305
000020 e6 a1 fb 3c ac d0 45 3d 02 c4 c4 bd 58 eb a4 3d
       0.030716848 0.048294708 -0.09607698 0.08052701
000030 a6 6b e3 bd 58 60 92 bd 9b 1b 00 be a0 96 fa 3d
       -0.11104517 -0.07147282 -0.1251053 0.12235761
000040 bd 60 af 3d 70 ce 69 3c 9e 6b ed bd 47 b3 bd 3d
       0.08563373 0.01427041 -0.11592792 0.0926271
000050 f8 bf 79 bd 02 c9 c4 bd 4b f2 86 bd 70 41 9a 3c
       -0.06097409 -0.09608652 -0.065891825 0.018830031
000060 c6 0d cd bd fc 2b 03 3e 43 92 19 3d 2e 12 00 3e
       -0.10012393 0.12809747 0.037493 0.12506935
000070 4e 86 bf bb c8 8e 5c 3d df 7a 82 3d 8a 35 aa 3d
       -0.005844868 0.053847104 0.06371092 0.08310993
000080 2b ff 5f 3d f1 7f ac bd c5 b4 e2 3d 46 05 b8 bd
       0.054686707 -0.084228404 0.11069635 -0.08985381
000090 7c d3 53 bd b0 44 b4 bc c8 ad 11 3d c1 a2 c6 3d
       -0.05171536 -0.022005409 0.03556612 0.096990116
0000a0 3f d5 92 bc 6f d6 96 3b ba 2d c5 bc c4 ca 97 3d
       -0.01792395 0.004603199 -0.024069656 0.07411721
0000b0 9a f5 29 3d c3 cb c8 bd af c0 cf bd 76 93 99 3d
       0.04149399 -0.098044895 -0.10144173 0.07498829
0000c0 c0 d7 47 bb 1d 20 f0 3d e1 1b c6 3c 72 c9 07 3e
       -0.0030493587 0.11724875 0.024183216 0.13260439
0000d0 74 1e cc 3d 68 58 ed bd be cc ee 3d dc c4 f9 bd
       0.09966746 -0.11589128 0.11660145 -0.12195751
0000e0 8e bf b3 bd aa 96 b9 3d fe 8d ce 3d a0 78 42 3c
       -0.087767705 0.0906194 0.100856766 0.01186958
0000f0 c4 28 e0 3d 9d 1f f2 3d fa ac fa 3d 88 c7 39 bc
       0.109452754 0.11822436 0.12240024 -0.011339076

net.4.weight f4 [1, 64]
000000 7e 04 02 3e fe 5d ea 3d ec 1e ca 3d c0 c1 ab bd
       0.12697026 0.11443709 0.09869179 -0.08386564
000010 ff 6b 88 3d 20 b4 01 3d 33 26 80 3d f0 e8 01 3d
       0.066612236 0.03166592 0.06257286 0.031716287
000020 53 e3 e2 3d ef ca 19 3e a0 6f cf 3d c0 8b de 3c
       0.11078515 0.1501882 0.10128713 0.027166247
000030 78 5c e9 bc 08 d0 8a bd bd 36 98 3d ac 1d 02 be
       -0.028486475 -0.0677796 0.074323155 -0.12706631
000040 c1 72 9c 3d 00 ec de bb 48 7a 3a 3d cc 29 f2 3c
       0.07639075 -0.0068030357 0.045526773 0.029560946
000050 37 b3 c7 3d 0c e5 bc bd d7 ac 07 3d 64 6e 24 3d
       0.097509794 -0.09223375 0.033123817 0.04014434
000060 fe 06 f2 bd e1 b5 8e 3d ea 3f 00 3e fa 66 9c bd
       -0.1181774 0.069682844 0.12524381 -0.07636829
000070 36 5c bc bd 37 7d 46 bd ed 56 07 3e 60 b6 74 3d
       -0.09197275 -0.048459258 0.13216753 0.05974424
000080 68 f4 f7 bc 6e e3 10 be 60 4a 02 3d 52 29 e0 bd
       -0.03026791 -0.14149258 0.03180921 -0.10945381
000090 bc a0 08 3d f6 a6 d1 bd 58 cd 09 bd 18 fb 70 3d
       0.033356413 -0.102369234 -0.033643097 0.05883321
0000a0 d0 81 17 be 61 ff 07 3e cf e1 49 3d 43 d9 9e 3d
       -0.14795613 0.13281013 0.049287613 0.07756283
0000b0 6e 4f ea 3d c9 08 fd 3d 5a 28 8f 3c 2c 78 78 bd
       0.11440931 0.12355191 0.017475296 -0.06066148
0000c0 00 ac 00 3c b8 da cb 3d da 59 03 be fe fa be bc
       0.007853508 0.09953827 -0.12827244 -0.023313042
0000d0 82 af 19 3e 78 cf d4 3d e0 f1 66 3d 90 64 63 bc
       0.15008357 0.10391134 0.056383014 -0.013878956
0000e0 5c 51 e1 3c 70 b7 1e bd 06 d8 f9 3d a0 81 93 3b
       0.027504615 -0.03874916 0.12199406 0.0045015365
0000f0 54 2f 88 3d 13 f9 91 bd 7a 23 f0 3d 68 69 f4 3d
       0.06649652 -0.07127585 0.117255166 0.11934167
