cstr/data/trained_models/seed_2/td3_pso/models/best_model_actor.pth (torch, 21121 bytes, 5 tensors)

net.0.weight f4 [64, 3]
0	0x3e948663	0.2900878
1	0xbdd8361d	-0.10557196
2	0xbef7348b	-0.48282275
3	0x3ccb8a54	0.024846233
4	0x3f1529b2	0.58266747
5	0xbe5197f7	-0.20468126
6	0xbdcf7d39	-0.10131306
7	0x3ed009a2	0.4063235
8	0xbe0ae1c3	-0.13562684
9	0xbe8913d6	-0.26772946
10	0xbdae0d9e	-0.08498691
11	0x3c900291	0.017579349
12	0xbee8b8f8	-0.4545362
13	0xbe393cc1	-0.18089582
14	0x3f0801c7	0.5312771
15	0xbd0f47f0	-0.034980714
16	0x3ee614ed	0.4493784
17	0xbe51f2ff	-0.20502852
18	0xbe4408e6	-0.1914402
19	0xbe50dd81	-0.20396997
20	0xbf0a14e1	-0.5393811
21	0xbebd47ff	-0.3696899
22	0x3eb1cb2f	0.3472533
23	0xbee15620	-0.4401102
24	0x3e2d5667	0.16927491
25	0x3f08a564	0.53377366
26	0xbcf52494	-0.029924668
27	0x3e778a59	0.24173869
28	0x3e939ad9	0.28829077
29	0xbec84cf3	-0.39121208
30	0xbe62f99c	-0.22165531
31	0xbe27b2cc	-0.163768
32	0x3f04541c	0.5169084
33	0xbf00a4fd	-0.5025175
34	0x3eae8d3b	0.34092125
35	0x3f14b28f	0.5808496
36	0x3eda757c	0.42667758
37	0x3e73eeed	0.23821612
38	0x3e8d3bb9	0.27584627
39	0x3d333f68	0.04376164
40	0x3ebd61a3	0.36988553
41	0x3f10f9a1	0.56630903
42	0xbe0ce7d8	-0.13760316
43	0x3f0dc562	0.5537931
44	0x3daf57c3	0.08561661
45	0xbec39d0b	-0.38205752
46	0xbed22427	-0.41043207
47	0x3e4c1e4d	0.19933434
48	0xbdb6368c	-0.08897123
49	0xbe73b977	-0.23801218
50	0x3e9710d5	0.2950503
51	0xbe92d14f	-0.28675315
52	0xbe91f9d9	-0.2851093
53	0x3ded141a	0.115761
54	0xbe019f8b	-0.12658517
55	0xbef45ad2	-0.4772554
56	0xbe4e6ed4	-0.20159465
57	0xbdcfc8b8	-0.10145706
58	0xbda692f2	-0.08133496
59	0x3ee30f75	0.4434773
60	0xbd4a95c8	-0.04945925
61	0xbe9d13de	-0.3067922
62	0x3e342f5e	0.17596194
63	0x3dc4c76f	0.096083514
64	0xbef66c8a	-0.48129684
65	0xbf0b3abf	-0.54386514
66	0x3efdb0ef	0.49549052
67	0xbf06e225	-0.5268882
68	0x3f129775	0.57262355
69	0x3e9e08d9	0.30866125
70	0x3f036760	0.5132961
71	0xbefccdde	-0.49375814
72	0x3e70bd2e	0.23509666
73	0xbf1f0065	-0.62109977
74	0x3df52d3d	0.11971519
75	0x3e80ada1	0.25132468
76	0x3ce63c5b	0.028104952
77	0xbe572a18	-0.21012151
78	0xbdd82da1	-0.10555578
79	0x3e09c970	0.13455749
80	0x3efbf558	0.4921062
81	0x3e977df9	0.29588297
82	0x3edab433	0.42715606
83	0xbe4c17d0	-0.19930959
84	0x3ddb8948	0.10719544
85	0xbeb9a447	-0.36258146
86	0xbda8cf5d	-0.082426764
87	0xbe9822c4	-0.29714024
88	0x3eab5014	0.33459532
89	0x3e85feca	0.2617095
90	0x3d4c2d9b	0.04984818
91	0x3eeb9943	0.46015367
92	0xbf0764e4	-0.5288832
93	0x3e7c0ce8	0.24614298
94	0x3ea1c39b	0.31594548
95	0x3f0f6bb9	0.56023747
96	0x3e0ca39c	0.13734287
97	0xbf0297aa	-0.5101267
98	0x3eaee2df	0.34157464
99	0xbc1a385d	-0.009412852
100	0x3e4efb3a	0.20213023
101	0xbed4d6e7	-0.41570207
102	0x3cf37be4	0.029722162
103	0x3f12eb0f	0.5738992
104	0x3e83da28	0.25752378
105	0x3ee652c2	0.44985014
106	0x3d76df77	0.060271706
107	0x3ee929d5	0.45539728
108	0xbf0a8d17	-0.54121536
109	0x3e63d0e8	0.2224766
110	0x3f1b7590	0.6072626
111	0x3e8e8ffa	0.2784422
112	0x3ed9aa38	0.4251268
113	0x3ed29df9	0.4113615
114	0x3f08a548	0.533772
115	0xbe9ee131	-0.31031182
116	0x3db7b692	0.089703694
117	0xbebc7f8f	-0.3681607
118	0x3ea16738	0.31524062
119	0x3e4fb18b	0.20282571
120	0xbed61bc3	-0.41818056
121	0xbd537a30	-0.0516302
122	0xbeb54b69	-0.35409096
123	0x3d869061	0.06570507
124	0xbe9480c8	-0.29004502
125	0x3e746920	0.23868227
126	0xbf1b9325	-0.607714
127	0x3e1a54a9	0.15071358
128	0x3f093fa7	0.5361275
129	0x3ec572d0	0.38564157
130	0x3eecb072	0.46228367
131	0x3cc0dc33	0.0235425
132	0xbec0a723	-0.37627515
133	0x3dc0a7ee	0.0940703
134	0xbe872897	-0.26398155
135	0xbea14d04	-0.3150407
136	0x3ed30a10	0.41218615
137	0x3e01b0e5	0.12665136
138	0x3ea4850f	0.32132766
139	0x3f076b6a	0.52898276
140	0x3df411ae	0.11917435
141	0xbf0f9b47	-0.5609631
142	0x3e622071	0.22082688
143	0x3e69cc0b	0.22831742
144	0x3d274fdd	0.040847648
145	0xbefdbd69	-0.4955857
146	0x3f0e612c	0.5561702
147	0xbf1a5107	-0.6027989
148	0x3ed2152a	0.41031772
149	0x3bd07d0d	0.0063625635
150	0x3ecccbd6	0.39999264
151	0xbf10e1c1	-0.56594473
152	0x3f131f15	0.574693
153	0x3e418164	0.18897015
154	0x3ef5e718	0.48027873
155	0x3ed0768f	0.40715453
156	0x3edd37da	0.43206674
157	0x3de4d136	0.11172716
158	0xbe06c37b	-0.13160507
159	0x3f0da25c	0.55325866
160	0x3ef5d7c9	0.48016194
161	0xbeb92eda	-0.36168557
162	0xbc3f8404	-0.01168919
163	0xbe1f01a0	-0.15527964
164	0xbf12f7de	-0.57409465
165	0x3cd55ec9	0.026046174
166	0xbe96defd	-0.29467002
167	0xbe14d1aa	-0.14533105
168	0xbe024ac4	-0.12723833
169	0x3ef99487	0.4874613
170	0x3e80cc6a	0.25155956
171	0xbefaca75	-0.48982587
172	0x3ea45f1e	0.3210382
173	0x3ed23f21	0.4106379
174	0x3e4a851a	0.19777337
175	0x3e3818a7	0.17978154
176	0x3e4eeee6	0.2020832
177	0x3ca647c1	0.020297887
178	0xbf0d9c54	-0.5531666
179	0xbe5fef1d	-0.21868558
180	0x3ec46e55	0.38365427
181	0x3e8ef54b	0.2792152
182	0x3ef74241	0.48292735
183	0x3de0f25b	0.10983726
184	0x3f22bce7	0.6356949
185	0xbe9d1be4	-0.3068534
186	0xbe9669b8	-0.29377532
187	0x3e850634	0.25981295
188	0xbe9706cf	-0.29497382
189	0x3e6160d4	0.22009593
190	0xbd3abad6	-0.045588337
191	0xbe3cfd53	-0.1845601

net.0.bias f4 [64]
0	0x3e1bd409	0.15217604
1	0x3efc2c29	0.49252442
2	0x3ec92d8d	0.39292565
3	0xbf012b48	-0.50456667
4	0x3e713fa1	0.23559429
5	0x3ea421b4	0.32056963
6	0x3eebfea7	0.46092722
7	0xbdb54304	-0.08850673
8	0x3ee40bd9	0.4454029
9	0x3ef91362	0.486476
10	0x3cca9162	0.024727527
11	0xbe065334	-0.13117677
12	0x3ece6004	0.4030763
13	0x3dae812d	0.08520732
14	0x3e997aee	0.299766
15	0x3e097972	0.13425234
16	0x3e9bcbfc	0.30429065
17	0xbe3a4d9a	-0.18193665
18	0xbeb6956a	-0.3566087
19	0x3f0561b9	0.5210224
20	0x3ea8edf1	0.32994035
21	0x3e3d2248	0.18470109
22	0x3e5bba88	0.21457875
23	0xbe53abbb	-0.20670979
24	0x3e8fa024	0.28051865
25	0x3f093be4	0.5360701
26	0x3f0cd4ff	0.55012506
27	0x3d8206d4	0.063489586
28	0x3e345476	0.17610344
29	0x3f10a66b	0.56503934
30	0xbdeb00a6	-0.11474733
31	0xbebc8f79	-0.3682821
32	0x3f11f2c2	0.57011044
33	0x3ded6e30	0.11593282
34	0xbe4c8648	-0.19973099
35	0x3e12b913	0.14328413
36	0xbe8fe63c	-0.28105342
37	0xbe946a7f	-0.289875
38	0x3ec2cafd	0.38045493
39	0x3ede2999	0.43391111
40	0xbefc89e5	-0.49323955
41	0xbe405a63	-0.1878448
42	0x3ed353b7	0.41274807
43	0xbd424e2a	-0.047437824
44	0xbefb0346	-0.49025935
45	0x3eddf75c	0.43352783
46	0xbefa36ee	-0.48870033
47	0xbe2aac6f	-0.1666734
48	0x3e2ad174	0.16681463
49	0xbf0611e5	-0.52371055
50	0xbe23d6a7	-0.15999852
51	0x3e202c53	0.15641908
52	0xbe84f1b0	-0.25965643
53	0xbe04333c	-0.1291017
54	0x3e268a94	0.16263801
55	0x3e3b87dd	0.18313546
56	0xbe99c395	-0.3003203
57	0x3f17aa6f	0.59244436
58	0xbedae3ea	-0.4275201
59	0xbd925203	-0.07144549
60	0xbeb0cfc2	-0.34533507
61	0xbe839a9e	-0.257039
62	0xbdb84fc6	-0.089995906
63	0x3e3cf6f0	0.18453574

net.2.weight f4 [64, 64]
0	0x3d4dd39f	0.050250646
1	0x3cb18b56	0.021672886
2	0xbdf1de41	-0.1180997
3	0x3dc97ee4	0.098386556
4	0xbc959f92	-0.018264566
5	0x3e1f1c6f	0.1553819
6	0x3e1b98e0	0.15195036
7	0xbd602cc6	-0.0547302
8	0x3d4667e9	0.04843894
9	0x3b626c6d	0.003454949
10	0xbdf6b5b2	-0.120463744
11	0x3dded5ff	0.1088066
12	0xbe19b71e	-0.1501126
13	0xbd9826dd	-0.074292876
14	0xbbeca174	-0.007221395
15	0x3ce10678	0.027468905
16	0xbd8a78bd	-0.0676131
17	0xbd9a7183	-0.07541182
18	0x3d959e6f	0.073056094
19	0x3e1579ea	0.14597288
20	0xbd8e0642	-0.06934787
21	0x3d9c0fec	0.07620224
22	0x3e0d5f4e	0.13805887
23	0xbdadb630	-0.08482015
24	0x3d1b997c	0.03798817
25	0xbcba34c4	-0.022730239
26	0x3c86416b	0.016388616
27	0xbdabe8c1	-0.08394004
28	0x3d8d0916	0.06886499
29	0x3d6eacd6	0.058270298
30	0xbdbe6197	-0.092959575
31	0x3dcd0cdb	0.100122176
32	0x3d512f11	0.051070277
33	0xbc910fcb	-0.017707726
34	0x3be9a4c6	0.007130238
35	0x3db0fcdc	0.08641979
36	0xbd095454	-0.033527687
37	0xbd539ff7	-0.051666226
38	0xbdc1077e	-0.09425257
39	0xbca182d3	-0.019715702
40	0x3e13b81e	0.14425704
41	0x3cf5e98b	0.030018589
42	0x3cebdc8e	0.028791692
43	0x3d0e286b	0.034706514
44	0x3d90b32c	0.07065424
45	0x3d20380f	0.03911596
46	0x3de2ae63	0.11068418
47	0xbd7741fe	-0.06036567
48	0xbba51efe	-0.005039095
49	0xbdd8322d	-0.10556445
50	0xbd1b993b	-0.03798793
51	0xbc806c53	-0.015676653
52	0x3d9e4c84	0.07729438
53	0xbdcd6d9a	-0.100306705
54	0x3d30b05e	0.043136947
55	0xbd8eaac1	-0.069661625
56	0xbceeb80f	-0.0291405
57	0xbd70287f	-0.05863237
58	0x3d1a0d61	0.037610415
59	0x3d7d31fc	0.061815247
60	0xbd51e918	-0.051247686
61	0xbd94e38c	-0.072699636
62	0xbd9cab67	-0.0764988
63	0xbca6c3c2	-0.020357016
64	0x3b5e48b8	0.0033917855
65	0xbdb20f49	-0.08694322
66	0x3d540430	0.051761806
67	0xbd8a7dbf	-0.067622654
68	0xbdf2b05e	-0.118500456
69	0x3d12ef2e	0.03587263
70	0x3b9f5086	0.004861894
71	0xbcd21476	-0.025644522
72	0x3cfc4050	0.030792385
73	0xbdc02838	-0.09382671
74	0x3daf35a4	0.08555153
75	0x3d5c5730	0.053794086
76	0xbdcc40b3	-0.09973278
77	0xba890fa0	-0.0010456927
78	0xbdf1be43	-0.11803868
79	0xbcde489d	-0.027134234
80	0xbdfed45a	-0.124428466
81	0x3dd5ec2f	0.10445439
82	0xbd13feb7	-0.036131587
83	0xbc67d9da	-0.014151061
84	0xbd9527b9	-0.07282967
85	0xbdbd880b	-0.09254464
86	0xbdc0c99e	-0.094134554
87	0xbd4a3944	-0.04937102
88	0xbe09e4f6	-0.13466248
89	0xbdbd6ca6	-0.09249239
90	0xbd5c39d6	-0.053766094
91	0x3c9987fa	0.018741596
92	0x3d8d18d1	0.06889499
93	0x3d658371	0.056033555
94	0x3dc14695	0.094372906
95	0xbd022f24	-0.031783238
96	0xbd83dbb6	-0.06438391
97	0x3cf878a3	0.030330962
98	0xbdc18754	-0.0944964
99	0xbcb544ca	-0.022127528
100	0xbda407fd	-0.08009336
101	0x3db036c7	0.08604198
102	0xbd157534	-0.036488727
103	0x3c8d341d	0.017236764
104	0x3dd62b56	0.104574844
105	0x3d7fe577	0.062474694
106	0x3b73a688	0.0037178118
107	0x3d142f06	0.036177658
108	0x3d7b47ba	0.0613477
109	0xbd93c50c	-0.07215318
110	0xbdf13ecb	-0.11779555
111	0xbe061164	-0.13092571
112	0x3daba8bc	0.08381793
113	0x3de843dc	0.11341068
114	0xbd8e8ffa	-0.06961055
115	0x3dad653c	0.084665745
116	0x3d53c462	0.051700957
117	0x3d892f8e	0.066985235
118	0xbd06fef2	-0.03295798
119	0xbde771d8	-0.11301011
120	0xbe0f8d5b	-0.14018767
121	0x3e1d7fb5	0.15380748
122	0xbdb4608c	-0.08807477
123	0xbbca00dc	-0.006164653
124	0x3af3c7d0	0.0018598977
125	0x3dfd1422	0.12357356
126	0xbd89655a	-0.067087844
127	0xbcbd7fcf	-0.023132233
128	0x3d0d5845	0.03450801
129	0x3e06d068	0.13165438
130	0x3e00a0cd	0.1256134
131	0xbcc63c8f	-0.024198798
132	0x3d6bca00	0.05756569
133	0x3d1f99d7	0.038965072
134	0x3db58999	0.08864135
135	0xbd903642	-0.07041599
136	0xbd93d737	-0.07218783
137	0xbd292178	-0.041291684
138	0x3d1b58b2	0.037926383
139	0xbd4dda24	-0.050256863
140	0x3ab60734	0.0013887645
141	0x3e00d7de	0.12582347
142	0xbe195784	-0.14974791
143	0xbbc64693	-0.0060508936
144	0xbcf0acf0	-0.029379338
145	0x3da40013	0.08007827
146	0xbe00b30e	-0.12568304
147	0x3d40dc06	0.04708483
148	0x3dd2b23b	0.10287901
149	0x3daff3f1	0.0859145
150	0xbc20256f	-0.00977455
151	0xbdb874b4	-0.09006634
152	0xbd2476b8	-0.04015228
153	0x3deb4a95	0.11488835
154	0xbde435b0	-0.111430526
155	0x3cc8c5f1	0.024508448
156	0xbd80c0a0	-0.0628674
157	0x3ccb28df	0.024799762
158	0x3cadad6b	0.021200856
159	0xbdc4e5a4	-0.09614113
160	0xbd2b323e	-0.04179596
161	0xbd5b0fc4	-0.053481832
162	0xbd14196c	-0.036157057
163	0x3baea347	0.005329523
164	0x3c831702	0.016002182
165	0x3de54fd1	0.111968644
166	0x3c7462f6	0.014916172
167	0xbcf47cc7	-0.029844655
168	0xbd25ffab	-0.040527027
169	0xbbbf1ab8	-0.0058320425
170	0xbd7bb9d2	-0.06145651
171	0xbc10f800	-0.00884819
172	0xbd48f996	-0.04906615
173	0x3db696ea	0.08915503
174	0xbe105608	-0.14095318
175	0xbdb75e4b	-0.08953532
176	0xbdf93bfb	-0.121696435
177	0xbd836bca	-0.064170435
178	0xbd8b7136	-0.06808703
179	0x3ca6a4a1	0.020342173
180	0x3e03daea	0.12876478
181	0x3d89bd8d	0.06725607
182	0xbd62164d	-0.05519705
183	0x3d34230d	0.04397874
184	0xbcd8cfdf	-0.026466308
185	0xbd2c7a54	-0.04210885
186	0x3c2db053	0.010601121
187	0xbe38f43e	-0.18061921
188	0x3dc0a740	0.094069004
189	0x3d59e00e	0.05319219
190	0xbd07e635	-0.033178527
191	0xbd9a4687	-0.07532983
192	0xbe024d4e	-0.12724802
193	0xbdc41b04	-0.09575465
194	0xbdf1dc60	-0.11809611
195	0xbd7bcb2b	-0.061473053
196	0xbe295f5e	-0.16540286
197	0xbe0c4b3f	-0.13700579
198	0xbc0f5b64	-0.008749817
199	0xbdd718c9	-0.10502774
200	0xbd2e0f29	-0.042494927
201	0x3dd75baa	0.105155304
202	0xbd46297a	-0.0483794
203	0x3d48dcf5	0.049038846
204	0x3dec3602	0.11533739
205	0x3b9472a2	0.004530267
206	0x3dc83345	0.09775404
207	0x3db5ee7a	0.088833764
208	0xbcb8585c	-0.02250307
209	0xbd4cc8d8	-0.049996227
210	0xbda9df06	-0.082944915
211	0xbdd56824	-0.10420254
212	0xbd2cfb1c	-0.042231664
213	0xbd1cad76	-0.038251363
214	0xbdd4c1dd	-0.10388539
215	0xbdaa05db	-0.08301898
216	0x3d3b75e0	0.04576671
217	0x3c0102d0	0.007874206
218	0xbd567806	-0.052360557
219	0xbcee4226	-0.029084276
220	0x3c8a10a1	0.016853632
221	0x3d719945	0.05898406
222	0x3d6ac0ef	0.057312902
223	0xbc83e694	-0.01610116
224	0xbcc24860	-0.023716152
225	0x3c9aaba3	0.01888067
226	0xbcbec453	-0.023286974
227	0x3c09e84e	0.008417202
228	0xbd661e5c	-0.056181297
229	0xbcc58de0	-0.024115503
230	0xbd2b3329	-0.041796837
231	0x3cee7ba4	0.02911169
232	0xbc698248	-0.014252253
233	0xbe224c1f	-0.1584935
234	0x3cef91c6	0.029244315
235	0xbd5c651a	-0.053807355
236	0xbd83d9c6	-0.06438021
237	0x3da2ba4a	0.07945688
238	0xbdc912ad	-0.09818015
239	0xbdb5a881	-0.0887003
240	0x3d856271	0.06512917
241	0x3dee7d4e	0.11644994
242	0xbde1291e	-0.109941706
243	0x3d857e1a	0.065181926
244	0xbdd49dbc	-0.10381648
245	0xbbb910b8	-0.005647745
246	0xbbb2248c	-0.0054364856
247	0x3db41e74	0.08794871
248	0x3d94465e	0.07239984
249	0xbc927a76	-0.01788066
250	0xbdba56bf	-0.09098577
251	0xbdb84ae1	-0.08998657
252	0x3d82298a	0.06355579
253	0xbd96afc8	-0.07357746
254	0xbd9102f6	-0.07080643
255	0xbcf22b40	-0.029561639

net.2.bias f4 [64]
0	0x3e0ca52e	0.13734886
1	0x3dd26fdc	0.10275242
2	0x3da60a67	0.08107453
3	0xbd5bafd6	-0.053634487
4	0x3d83c4e9	0.06434042
5	0xbdbc663e	-0.09199189
6	0xbd8b6a6e	-0.06807409
7	0xbd9bfe9d	-0.07616923
8	0x3e0a11f3	0.1348341
9	0xbd686e7b	-0.056745987
10	0xbd0bb560	-0.03410852
11	0xbe0a0a85	-0.13480575
12	0xbcc1b0cf	-0.02364388
13	0xbd5e1988	-0.054223567
14	0xbd07a92d	-0.033120323
15	0x3cfcfc3e	0.030881997
16	0xbdd84ef2	-0.105619326
17	0x3d8b6393	0.06806102
18	0xbd72eaf5	-0.059306104
19	0x3bc215b5	0.005922998
20	0xbdc6a200	-0.09698868
21	0xbdd26600	-0.10273361
22	0x3da07b78	0.0783605
23	0x3c8110b4	0.015755035
24	0x3dd7dfce	0.10540734
25	0x3e33a27f	0.17542456
26	0xbdc8823a	-0.09790464
27	0xbd5cbe18	-0.053892225
28	0x3bcbd30e	0.006220228
29	0xbe13d993	-0.14438467
30	0x3e0e79b5	0.13913615
31	0x3ddf6d52	0.10909523
32	0x3d5fb390	0.054614604
33	0x3c8acd58	0.016943619
34	0xbda71d19	-0.08159847
35	0x3d1696ce	0.036764912
36	0xbd075599	-0.033040617
37	0x3d81690e	0.06318866
38	0x3d2c32a0	0.042040467
39	0xbddbbf8b	-0.10729893
40	0xbccddd4a	-0.025129933
41	0xbde812db	-0.113317214
42	0xbdf2e473	-0.118599795
43	0xbda7e2bd	-0.08197544
44	0x3db70266	0.08936004
45	0xbd80ca81	-0.062886246
46	0x3cbcea45	0.023060927
47	0xbc416764	-0.011804435
48	0x3d1e5ba3	0.03866161
49	0xbdb9d3c7	-0.090735964
50	0xbdf3501b	-0.11880513
51	0xbe1236be	-0.14278695
52	0xbc6faaa2	-0.014628084
53	0x3cf147e6	0.02945323
54	0x3cab48f0	0.020908803
55	0xbe0d0b99	-0.13773955
56	0xbb76cc8b	-0.0037658538
57	0x3de661b1	0.11249102
58	0x3d5933b1	0.053027812
59	0xbc2e0111	-0.010620371
60	0x3cfaa454	0.030595936
61	0x3da131f9	0.0787086
62	0xbd95e95e	-0.07319902
63	0x3e1c18fd	0.15243907

net.4.weight f4 [1, 64]
0	0xbdd0ff84	-0.10204986
1	0xbd71c9aa	-0.059030212
2	0xbd8465c0	-0.0646472
3	0xbda96776	-0.08271687
4	0xbc9b212e	-0.01893672
5	0x3d3d5c5d	0.046230663
6	0xbd105674	-0.035238698
7	0x3cf1b9cd	0.029507542
8	0x3d5abd17	0.053402986
9	0x3d03913a	0.03212092
10	0xbe21e21d	-0.15808912
11	0x3dbdcafa	0.0926723
12	0xbd4aaeed	-0.04948323
13	0x3d9f9908	0.0779286
14	0xbe0aad7c	-0.13542742
15	0x3cdd9367	0.027047826
16	0xbd44809d	-0.047974218
17	0xbe007b4c	-0.12547034
18	0x3d6ad4f1	0.057331983
19	0xbc3efa5e	-0.011656372
20	0x3cfa2bd0	0.03053847
21	0xbe03a116	-0.12854418
22	0xbd35975c	-0.0443338
23	0xbd86ae69	-0.06576235
24	0x3dd00e6d	0.101590015
25	0xbe148ded	-0.14507265
26	0x3e055aa4	0.13022858
27	0xbd13b999	-0.03606567
28	0xbde6b444	-0.11264852
29	0xbd1d710c	-0.038437888
30	0xbd5bf8e3	-0.053704154
31	0xbcb3354e	-0.021876004
32	0xbd7b12dc	-0.061297283
33	0x3dc8d5c4	0.098063976
34	0xbc8ab120	-0.016930163
35	0xbcfefe9b	-0.031127265
36	0x3d20ef23	0.03929056
37	0x3d3b9fbf	0.045806643
38	0xbdb53270	-0.08847511
39	0x3df35a58	0.11882466
40	0x3e279a5b	0.16367476
41	0xbdd7c7e4	-0.10536173
42	0xbd70ae87	-0.058760192
43	0x3ce4d158	0.027931854
44	0xbe0f6664	-0.14003903
45	0xbe06bee9	-0.13158764
46	0x3e2274e0	0.15864897
47	0xbe084782	-0.13308528
48	0xbd95cd2e	-0.073145255
49	0x3d91f02d	0.07125888
50	0x3dab252b	0.083566986
51	0x3ddd7b9f	0.108145945
52	0xbcaf359e	-0.021387871
53	0x3d5be9e9	0.05368987
54	0x3dc808ae	0.097672805
55	0xbdb6b25a	-0.089207366
56	0xbdba21be	-0.09088467
57	0x3dc6c44f	0.09705412
58	0x3db0c51d	0.086313464
59	0x3d265a61	0.040613536
60	0xbdf3c84d	-0.11903439
61	0x3defbc69	0.11705858
62	0x3d748fbd	0.059707392
63	0xbae04035	-0.0017108979
