cstr/data/trained_models/seed_4/td3/models/best_model_actor.pth (torch, 21121 bytes, 5 tensors)

net.0.weight f4 [64, 3]
-0.57242715 -0.45544925 -0.2472878 -0.48770073 -0.010527916 -0.55696964 0.3478112 0.24336483
0.14435878 0.42294535 0.05348042 0.6181542 -0.31199157 -0.22055553 -0.64411116 -0.017867576
-0.27649742 0.57339376 0.4138854 0.36940318 0.20584679 -0.22755314 0.57550687 -0.30317348
-0.36849126 -0.36059546 -0.2393178 0.16229631 -0.49294603 -0.52753997 -0.31437334 0.37520516
-0.26849625 -0.5170697 -0.6297391 -0.19134574 -0.13541098 -0.5053061 -0.2265444 0.011106855
0.095172815 -0.08276832 -0.07154783 -0.3015903 0.19086124 -0.13908651 -0.39474407 -0.13904
-0.04366343 0.5366284 0.22233988 -0.23312688 -0.08190972 0.51018673 0.37628564 0.034244187
-0.28903267 0.48922518 0.32869253 -0.34370938 0.4051843 0.10714349 -0.47110307 -0.09317948
-0.48672283 -0.3022715 0.014114323 -0.41374677 0.30769953 0.31050393 0.10439528 0.5156011
-0.37164256 -0.08294589 0.30917406 0.20732708 0.1634574 0.69019186 0.13456321 0.45869043
-0.2519071 -0.44728422 -0.3577534 0.11741703 0.5157913 -0.51874536 0.15876435 -0.50950074
-0.38368627 -0.19687848 -0.13862802 0.1980855 -0.3586112 0.5694583 -0.010174674 0.28917536
-0.39148206 0.3796983 -0.08144318 -0.28725588 0.09820389 0.2402857 0.09359636 -0.12699914
0.4382302 -0.14887327 -0.18136193 0.20351617 0.35338178 -0.49520817 0.3519791 0.3291031
-0.32209903 -0.190915 -0.38447723 -0.48839575 0.4847295 0.5302836 -0.17292489 0.64575547
0.15422234 -0.46337187 -0.53544384 -0.11230545 -0.53375 -0.41554144 0.22259238 0.05022774
-0.18935463 -0.0016716799 0.61273426 -0.023058206 0.26712713 -0.10883477 -0.12601703 0.12940791
0.26831135 0.5373028 -0.46100128 -0.125015 -0.5381765 0.006923398 -0.054696377 0.25643146
-0.10964679 -0.01061217 0.26382715 -0.43884164 0.3067194 0.7490959 -0.41087455 0.5630237
0.087650046 0.57564497 0.4296095 -0.43045235 0.46341854 0.04983066 0.2087108 -0.07910557
-0.3345751 0.018371344 0.17887098 0.23162562 -0.47625828 -0.44286624 0.41830555 -0.024423778
-0.008526242 -0.14980203 0.0011966692 0.13107547 -0.57174754 0.38761953 0.08422032 0.1974215
-0.21307534 0.4092695 0.47309682 -0.4293867 0.53111976 -0.015777951 0.5497286 0.5200683
0.029601801 0.20243812 0.19399093 0.30601162 -0.49873105 0.00363089 0.5515624 -0.40764904
00000000: 968a 12bf a530 e9be 0339 7dbe e9b3 f9be
00000010: 487d 2cbc 9095 0ebf 4f14 b23e a134 793e
00000020: cad2 133e 4b8c d83e 490e 5b3d 5b3f 1e3f
00000030: 5cbd 9fbe 4fd9 61be 78e4 24bf 065f 92bc
00000040: 1291 8dbe efc9 123f cae8 d33e 6a22 bd3e
00000050: 80c9 523e b103 69be 6b54 133f 8e39 9bbe
00000060: e3aa bcbe f89f b8be ba0f 75be 0131 263e
00000070: 6c63 fcbe dc0c 07bf 8bf5 a0be e41a c03e
00000080: 5778 89be ae5e 04bf 9536 21bf 23f0 43be
00000090: 2da9 0abe be5b 01bf 41fb 67be 87f9 353c
000000a0: f7e9 c23d 7082 a9bd ab87 92bd 0b6a 9abe
000000b0: 2171 433e b26c 0ebe e51b cabe 8060 0ebe
000000c0: 6dd8 32bd 7b60 093f 11ad 633e d0b8 6ebe
000000d0: 49c0 a7bd 999b 023f 83a8 c03e a243 0c3d
000000e0: 17fc 93be b97b fa3e 634a a83e adfa afbe
000000f0: 5174 cf3e 0c6e db3d 6c34 f1be e2d4 bebd
00000100: bc33 f9be 54c3 9abe c33f 673c 9ed6 d3be
00000110: cb8a 9d3e 5ffa 9e3e 31cd d53d 6ffe 033f
00000120: ef47 bebe 89df a9bd 104c 9e3e 8d4d 543e
00000130: 6061 273e 6ab0 303f f0ca 093e 79d9 ea3e
00000140: f8f9 80be 7002 e5be 742b b7be 5778 f03d
00000150: e60a 043f 7fcc 04bf 1f93 223e a46e 02bf
00000160: 8772 c4be 839a 49be 81f4 0dbe edd6 4a3e
00000170: e39b b7be 05c8 113f adb3 26bc cb0e 943e
00000180: 5670 c8be d167 c23e afcb a6bd 3413 93be
00000190: 1f1f c93d 740d 763e 73af bf3d 100c 02be
000001a0: b55f e03e 3c72 18be f1b6 39be 8b66 503e
000001b0: 75ee b43e ed8b fdbe 9b36 b43e 3480 a83e
000001c0: 2aea a4be 397f 43be 33da c4be 020f fabe
000001d0: 772e f83e aac0 073f 3913 31be 3b50 253f
000001e0: 76ec 1d3e 143f edbe d912 09bf 6600 e6bd
000001f0: d7a3 08bf d9c1 d4be 42ef 633e 9abb 4d3d
00000200: 2ee6 41be 451c dbba 27dc 1c3f 90e4 bcbc
00000210: e3c4 883e c4e4 debd 9c0a 01be 8283 043e
00000220: 1b60 893e ad8c 093f 5c08 ecbe ef03 00be
00000230: efc5 09bf acdd e23b 4f09 60bd fc4a 833e
00000240: 7f8e e0bd abde 2dbc 5a14 873e daaf e0be
00000250: 530a 9d3e c0c4 3f3f 265e d2be 5222 103f
00000260: de81 b33d 785d 133f c7f5 db3e 4064 dcbe
00000270: 3245 ed3e 3c1b 4c3d 49b8 553e 1a02 a2bd
00000280: 6d4d abbe 807f 963c f429 373e 442f 6d3e
00000290: 20d8 f3be 5dbf e2be 252c d63e 6014 c8bc
000002a0: a7b1 0bbc b465 19be 8ed9 9c3a a638 063e
000002b0: 0c5e 12bf 1176 c63e b47b ac3d dd28 4a3e
000002c0: 6c30 5abe c68b d13e bf39 f23e 93d8 dbbe
000002d0: 77f7 073f c340 81bc 03bb 0c3f 3223 053f
000002e0: 7a7f f23c f04b 4f3e 8fa5 463e 8ead 9c3e
000002f0: ad59 ffbe 3af4 6d3b 3233 0d3f 60b7 d0be

net.0.bias f4 [64]
-0.3251806 0.09755346 0.23543508 0.29564855 0.07993358 0.24136747 -0.28366327 0.6412522
-0.38046455 0.3331465 0.30943707 0.5055668 0.554914 -0.19159275 0.43938828 -0.4213438
0.51056296 -0.35539708 -0.4323466 -0.42491123 0.5755227 0.25080976 -0.40235326 -0.45863616
0.033332527 -0.09767801 0.21099441 0.39769387 -0.5095214 -0.5243257 0.12723507 0.37648246
0.36802444 -0.008278402 -0.30342466 0.2737726 0.39079347 -0.63801795 -0.054666728 0.43314242
0.45520145 0.7136906 0.25119293 0.6518577 -0.7220113 0.14995117 0.14487083 0.41558066
0.1867662 0.43484285 -0.50658983 -0.054629616 0.24007843 0.48543626 0.14785281 0.47623372
-0.18035154 -0.12422502 0.56859475 0.40268698 0.39326194 -0.5339143 -0.014640851 -0.50174844
00000000: 127e a6be 1cca c73d e515 713e 3f5f 973e
00000010: 37b4 a33d 0929 773e 503c 91be 1b29 243f
00000020: 40cc c2be 2e92 aa3e 896e 9e3e d36c 013f
00000030: d80e 0e3f e430 44be 80f7 e03e 60ba d7be
00000040: 41b4 023f 9bf6 b5be 895c ddbe f78d d9be
00000050: 7555 133f 236a 803e 3f01 cebe 5cd2 eabe
00000060: b087 083d 690b c8bd eb0e 583e 889e cb3e
00000070: ff6f 02bf 363a 06bf e949 023e 4fc2 c03e
00000080: b36d bc3e 22a2 07bc 7a5a 9bbe ec2b 8c3e
00000090: 1516 c83e 2555 23bf 38ea 5fbd d8c4 dd3e
000000a0: 2a10 e93e 6db4 363f 5c9c 803e 25e0 263f
000000b0: bcd5 38bf cd8c 193e 0559 143e fdc6 d43e
000000c0: a43f 3f3e b9a3 de3e dfaf 01bf 4ec3 5fbd
000000d0: 1fd7 753e 1a8b f83e ba66 173e e8d4 f33e
000000e0: 13ae 38be b069 febd 6d8f 113f fd2c ce3e
000000f0: a159 c93e 9cae 08bf 2ee0 6fbc 9672 00bf

net.2.weight f4 [64, 64]
0.11348051 0.10119508 0.06981522 -0.07686342 -0.07125506 -0.081578374 0.046260193 0.10246572
-0.016306534 -0.11779076 -0.027404606 0.01511997 0.007146582 0.06792614 0.03708473 -0.034135655
-0.08843942 -0.0023771971 -0.05849892 -0.09938358 -0.07093704 -0.11462079 0.014084369 -0.033000782
-0.07134114 0.023094058 -0.009163484 -0.0847369 0.054273665 -0.12079494 -0.010845706 0.09554672
0.10266006 0.0667586 -0.024144456 0.028121099 -0.087267384 -0.0039334 0.10788186 -0.052594632
-0.11685571 0.10253498 0.050896123 0.08667627 -0.04057683 -0.05231145 -0.021703273 -0.03745538
0.016570255 -0.028358608 -0.035626784 -0.08844291 -0.047013506 -0.08565919 0.008716211 0.07351464
0.058954895 0.022831276 -0.0920091 -0.015006408 -0.008854762 0.092418134 0.02150014 0.075693354
0.108219475 -0.015109345 -0.10039848 -0.09600961 0.09884015 -0.051535785 0.0048104674 0.04569082
-0.003815055 -0.115076944 -0.018975407 0.02560252 -0.055511087 0.008783862 0.02142179 0.048926175
-0.054233998 0.1118819 0.10770975 0.07866894 -0.08355066 -0.07342884 0.012791634 -0.06560601
-0.00014552474 -0.061494038 -0.052838802 0.014611453 -0.1004239 0.031798646 -0.008723825 -0.05242534
-0.06262343 -0.07421462 0.09803173 0.004447758 -0.027059644 -0.018312111 -0.10147886 -0.11281091
-0.09622547 -0.02882716 -0.05925232 0.045761198 0.08300695 -0.08153315 0.08076948 -0.035321042
-0.042246014 0.12084542 -0.07909013 0.03229685 0.03682767 0.03913212 -0.06394106 0.10708445
-0.08981454 -0.043275937 0.124931395 -0.02851805 -0.050800487 -0.11332363 -0.12420468 -0.101367086
-0.03604558 0.040036853 0.06080472 -0.030341005 -0.006347382 -0.06965588 0.12985465 0.02422221
0.025588542 0.022686195 0.09558264 -0.024665844 -0.019118274 -0.044861212 -0.10287607 -0.032853037
0.004057783 0.031124786 0.046938412 0.018593352 0.113153376 0.029252674 -0.03875017 -0.041780643
-0.14845388 -0.0518884 0.056067117 0.15230624 0.01661329 0.094138354 -0.014530358 0.045888703
0.057163075 -0.100311115 0.3723087 -0.022153871 -0.016489413 0.17793415 -0.061342195 0.10613346
0.006342512 -0.12409518 -0.0014374165 -0.013278037 0.08610457 0.11706767 -0.002626873 0.11072191
-0.12159936 -0.01035344 0.06346792 -0.050258156 -0.06739356 -0.056674216 0.06776989 -0.114278644
-0.08591816 0.12095786 0.029783607 -0.017723802 0.124307275 -0.040379815 0.021644253 -0.019313559
-0.122544795 -0.050685383 0.09946717 0.11688143 -0.091638684 0.003534192 0.10432954 -0.0173125
-0.0020222366 -0.022305505 -0.064735055 0.0196572 0.09901547 0.087770194 -0.046117995 -0.102348596
-0.060361374 -0.02957794 0.047220223 0.07433224 0.0468101 -0.0010937534 -0.11450675 0.08425656
-0.047531188 -0.068378955 0.01417698 -0.086397335 -0.04293905 0.051485375 0.09506733 0.109248616
-0.10232984 -0.023381919 0.40502807 0.14320539 0.07392651 0.07820095 0.08008139 0.007663248
-0.10388524 0.05783946 -0.091551766 0.0015888523 0.22626302 -0.095193736 0.090452686 -0.11596659
-0.04411369 0.045639217 0.11421594 0.061020363 0.04291233 0.07829109 -0.034324817 0.008267404
-0.040623203 -0.04740307 0.11775343 -0.10843878 -0.059717346 0.050341386 -0.019292945 0.012710184
00000000: 7868 e83d 5e3f cf3d 48fb 8e3d 926a 9dbd
00000010: 2cee 91bd 9012 a7bd 547b 3d3d 8cd9 d13d
00000020: 4895 85bc 483c f1bd a07f e0bc c0b9 773c
00000030: e02d ea3b dc1c 8b3d 28e6 173d d4d1 0bbd
00000040: ba1f b5bd c0ca 1bbb 909c 6fbd 9e89 cbbd
00000050: 7047 91bd 4ebe eabd 20c2 663c d42b 07bd
00000060: 4e1b 92bd c02f bd3c 7022 16bc 8a8a adbd
00000070: 104e 5e3d 5663 f7bd 30b2 31bc 00ae c33d
00000080: 703f d23d bcb8 883d 98ca c5bc 385e e63c
00000090: 3eb9 b2bd c0e3 80bb 2af1 dc3d 786d 57bd
000000a0: 0c52 efbd dcfd d13d 7478 503d 5483 b13d
000000b0: e433 26bd 8844 56bd 10cb b1bc d06a 19bd
000000c0: 58be 873c 5050 e8bc 64ed 11bd 8e21 b5bd
000000d0: 3c91 40bd 166e afbd 70ce 0e3c d88e 963d
000000e0: b07a 713d a808 bb3c 446f bcbd 70dd 75bc
000000f0: 9013 11bc b845 bd3d 1021 b03c 1e05 9b3d
00000100: 2ca2 dd3d 308d 77bc b89d cdbd b0a0 c4bd
00000110: b46c ca3d 3017 53bd 20a1 9d3b 4c26 3b3d
00000120: 0006 7abb 76ad ebbd 5072 9bbc 60bc d13c
00000130: 985f 63bd 30ea 0f3c c07c af3c d066 483d
00000140: 7824 5ebd 5622 e53d ee96 dc3d 2e1d a13d
00000150: 9c1c abbd dc61 96bd 0094 513c 725c 86bd
00000160: 0098 18b9 2ce1 7bbd 806d 58bd e064 6f3c
00000170: 0cab cdbd 4c3f 023d 60ee 0ebc f4bb 56bd
00000180: b640 80bd d6fd 97bd dcc4 c83d 80be 913b
00000190: 30ac ddbc 4803 96bc 26d4 cfbd 6809 e7bd
000001a0: dc11 c5bd f026 ecbc 90b2 72bd 1870 3b3d
000001b0: 8cff a93d dafa a6bd 786a a53d ccac 10bd
000001c0: 280a 2dbd ce7d f73d 02fa a1bd b449 043d
000001d0: 9cd8 163d 0049 203d 88f3 82bd 184f db3d
000001e0: b0f0 b7bd 1c42 31bd 08dc ff3d b09e e9bc
000001f0: 2c14 50bd 3816 e8bd 065f febd 8c99 cfbd
00000200: 88a4 13bd affd 233d 5f0e 793d b38d f8bc
00000210: b3fd cfbb bea7 8ebd 9ef8 043e a86d c63c
00000220: 109f d13c 66d8 b93c d5c0 c33d 0610 cabc
00000230: ed9d 9cbc 64c0 37bd b0b0 d2bd e890 06bd
00000240: 27f7 843b 68f9 fe3c 7e42 403d 1651 983c
00000250: f5bc e73d 4ea3 ef3c 80b8 1ebd 2e22 2bbd
00000260: 4b04 18be ee88 54bd a2a6 653d 2bf6 1b3e
00000270: 9818 883c 9ccb c03d bd10 6ebc cbf5 3b3d
00000280: d423 6a3d ea6f cdbd 3f9f be3e 097c b5bc
00000290: ce14 87bc 5f34 363e f441 7bbd 805c d93d
000002a0: d9d4 cf3b 9d25 febd b267 bcba 208c 59bc
000002b0: 9857 b03d 2dc1 ef3d 9e27 2cbb 2bc2 e23d
000002c0: 1609 f9bd 7aa1 29bc 78fb 813d 7fdb 4dbd
000002d0: a305 8abd 3923 68bd f1ca 8a3d ec0a eabd
000002e0: dcf5 afbd c1b8 f73d c0fc f33c 8231 91bc
000002f0: d094 fe3d 4e65 25bd 4a4f b13c 7837 9ebc
00000300: c4f8 fabd 7a9b 4fbd 72b5 cb3d 885f ef3d
00000310: 10ad bbbd e79d 673b baaa d53d f2d2 8dbc
00000320: 8087 04bb 09ba b6bc d093 84bd 2308 a13c
00000330: 9fc8 ca3d dcc0 b33d 39e6 3cbd 249c d1bd
00000340: 7d3d 77bd 704d f2bc fe69 413d 803b 983d
00000350: f3bb 3f3d 465c 8fba 8482 eabd b48e ac3d
00000360: 10b0 42bd 440a 8cbd 9046 683c 16f1 b0bd
00000370: dbe0 2fbd 54e2 523d a9b2 c23d bdbd df3d
00000380: 4f92 d1bd 708b bfbc d75f cf3e 6fa4 123e
00000390: c866 973d d227 a03d b601 a43d fc1b fb3b
000003a0: c9c1 d4bd 12e9 6c3d 7e7f bbbd 0941 d03a
000003b0: 7eb1 673e eff4 c2bd 423f b93d e47f edbd
000003c0: 8eb0 34bd 30f0 3a3d 0cea e93d 7df0 793d
000003d0: d7c4 2f3d 1457 a03d 2e98 0cbd 0174 073c
000003e0: 8464 26bd b929 42bd b628 f13d 2715 debd
000003f0: 2d9a 74bd c532 4e3d 3d0c 9ebc 603e 503c

net.2.bias f4 [64]
0.09694421 0.038137063 -0.069840506 -0.039386846 -0.090182036 -0.058810215 0.048331268 -0.079301864
-0.06757821 0.069473 0.02266586 -0.055454746 0.041497458 -0.09467308 -0.006926258 -0.030192465
0.059890438 -0.119181916 0.116935395 -0.0114790015 -0.073873386 -0.10518628 0.047132045 -0.064626925
0.09567861 -0.06421369 0.026855463 0.07927811 0.0057134856 0.11525707 -0.047940996 0.099681474
0.02835694 -0.011574344 0.014985095 -0.11532918 -0.05953509 0.076097876 0.00020270159 -0.12441905
-0.019333376 0.04560007 -0.08013428 -0.012862984 -0.13072619 -0.08331168 -0.005715072 -0.046578914
-0.025578106 0.15120654 -0.10421372 -0.023571134 0.062472377 0.046895117 -0.1742584 0.04581948
-0.06323235 0.123581134 -0.030619353 -0.023333892 -0.06724754 -0.00060226297 0.028221697 -0.037579607
00000000: b08a c63d 9c35 1c3d 8a08 8fbd 1a54 21bd
00000010: 5cb1 b8bd fbe2 70bd 02f7 453d 0469 a2bd
00000020: 7266 8abd dc47 8e3d c1ad b93c 8424 63bd
00000030: 3df9 293d f6e3 c1bd aaf5 e2bb 3056 f7bc
00000040: ad4f 753d a615 f4bd d37b ef3d 6c12 3cbc
00000050: ee4a 97bd e86b d7bd 880d 413d 1f5b 84bd
00000060: 26f3 c33d 7882 83bd fdff db3c 905c a23d
00000070: 3138 bb3b e60b ec3d c75d 44bd cd25 cc3d
00000080: d04c e83c 51a2 3dbc 0b84 753c b531 ecbd
00000090: 11db 73bd 34d9 9b3d 4b8c 5439 6acf febd
000000a0: 0761 9ebc 24c7 3a3d 711d a4bd 44bf 52bc
000000b0: 16dd 05be 509f aabd 8045 bbbb 88c9 3ebd
000000c0: 2d89 d1bc e3d5 1a3e 016e d5bd 4018 c1bc
000000d0: 09e3 7f3d 1815 403d cb70 32be 35ad 3b3d
000000e0: f67f 81bd 1b18 fd3d 70d5 fabc b826 bfbc
000000f0: 14b9 89bd 2fe1 1dba 3031 e73c 13ed 19bd

net.4.weight f4 [1, 64]
0.068972975 0.10604882 0.06958089 0.114101864 -0.112855345 0.16445681 0.0525722 0.014448023
0.12012552 0.08256972 -0.10849956 0.1133088 -0.092923105 -0.08559352 -0.020584494 0.10218738
-0.049972948 -0.124016285 -0.118867666 -0.16468878 0.017371103 0.09525022 0.027966533 -0.09760034
0.084941745 0.123705536 -0.095247574 0.06965278 -0.07142249 0.14578973 0.042983223 -0.120569974
-0.028096959 0.10238324 0.11880185 0.0084183635 0.06720966 -0.029842492 0.095878884 -0.17273352
-0.12070792 -0.06270097 -0.041616213 0.1746285 0.2522702 -0.1539689 0.10123554 0.10777305
0.13270152 0.17006953 -0.14517097 -0.11723772 -0.032541815 0.031314418 0.47739455 0.09983745
-0.12005174 0.19163375 -0.045124844 -0.00056375563 -0.07505665 0.15579627 0.09657787 -0.10005623
00000000: b441 8d3d 2030 d93d 6d80 8e3d 3dae e93d
00000010: b420 e7bd 5e67 283e f255 573d 67b7 6c3c
00000020: 5e04 f63d 501a a93d 0435 debd 720e e83d
00000030: 784e bebd a84b afbd d0a0 a8bc 9e47 d13d
00000040: 6fb0 4cbd 40fc fdbd e470 f3bd 2da4 28be
00000050: d84d 8e3c 8c12 c33d 121a e53c b0e2 c7bd
00000060: f0f5 ad3d 5459 fd3d 2911 c3bd 1ea6 8e3d
00000070: f445 92bd e749 153e 2d0f 303d 64ed f6bd
00000080: 982b e6bc 4eae d13d 624e f33d 2ded 093c
00000090: 38a5 893d 3e78 f4bc 265c c43d 0ee1 30be
000000a0: b735 f7bd 5e69 80bd c375 2abd d0d1 323e
000000b0: 8f29 813e 06aa 1dbe 9454 cf3d 1eb8 dc3d
000000c0: e8e2 073e b526 2e3e b3a7 14be 541a f0bd
000000d0: 914a 05bd 8c43 003d 0f6d f43e 9477 cc3d
000000e0: b0dd f5bd a33b 443e d4d4 38bd 00c9 13ba
000000f0: 4db7 99bd 0f89 1f3e 9eca c53d 48ea ccbd
